module_5/caesar_model.pth (torch, 247035 bytes, 7 tensors)

embedding.weight f4 [109, 128]
0	0xbf97378c	-1.1813827
1	0x400083f8	2.0080547
2	0xbf289702	-0.6585542
3	0xbf055b9e	-0.5209292
4	0x3e5bb580	0.21455956
5	0x3d839bd5	0.06426207
6	0x3f868211	1.0508443
7	0x3faef7e8	1.3669405
8	0xbf3b367b	-0.73130006
9	0xbe530585	-0.20607574
10	0x3ea05f83	0.3132287
11	0x3d8e7c60	0.069573164
12	0xbf1e84c9	-0.61921364
13	0x3fbc820e	1.472719
14	0xbf21dd5e	-0.63228405
15	0x4011a2d4	2.2755632
16	0x3f145560	0.5794277
17	0xbf951198	-1.1645994
18	0xbf5ab55f	-0.85433
19	0xbf7c6ffe	-0.98608387
20	0xbf32a501	-0.69783026
21	0xbed3ce95	-0.41368547
22	0xbfb44326	-1.4082992
23	0x3edcbde1	0.43113616
24	0xbf002540	-0.5005684
25	0xbd8d2513	-0.06891837
26	0x3f9ed66f	1.240919
27	0x3f3f2853	0.74670905
28	0xbfad75e7	-1.3551606
29	0x3fda5769	1.7057925
30	0x40070a9e	2.110023
31	0x3e1f969c	0.15584797
32	0x3f8957ed	1.0729958
33	0x3f84eeb4	1.0385346
34	0xbea7237d	-0.32644263
35	0xbfa17fea	-1.2617161
36	0x3edb0fea	0.4278558
37	0xc01dc9d8	-2.4654446
38	0x3fd99c4b	1.7000822
39	0x3fda7d19	1.7069427
40	0xbf84c0a4	-1.0371289
41	0x3ef51970	0.4787097
42	0xbf17729f	-0.5915927
43	0x3f8af706	1.0856636
44	0x3fe96947	1.8235253
45	0xbe8371a1	-0.2567263
46	0x3fc997bb	1.574943
47	0xbfa1f116	-1.2651699
48	0xbe344158	-0.17603052
49	0x3dc09644	0.09403661
50	0xbfdbf591	-1.7184316
51	0xbd9667eb	-0.073440395
52	0x3f9866e0	1.1906395
53	0xbf464b47	-0.77458614
54	0x3ed4c202	0.41554266
55	0xbe014a1f	-0.12625931
56	0x3f770738	0.9649539
57	0xbfc3c64f	-1.5294894
58	0x3fc286ad	1.519735
59	0x3ec1efae	0.37878174
60	0x3f33f48c	0.70295024
61	0xbfcc4f52	-1.5961707
62	0x3fab7662	1.3395503
63	0xbf97e42d	-1.1866509
64	0xbf24406b	-0.64160794
65	0xbf2ec082	-0.68262494
66	0xbe120d78	-0.1426295
67	0x3ff07621	1.878605
68	0x40233c50	2.5505562
69	0xbcf194e9	-0.029489951
70	0xbe227df0	-0.15868354
71	0x3f440022	0.765627
72	0xbeb68175	-0.35645643
73	0xbfb441c8	-1.4082575
74	0xbe8ea994	-0.27863753
75	0xbc342adc	-0.010996547
76	0xbf2ac00d	-0.66699296
77	0x3f2c6585	0.67342407
78	0xbf710aa1	-0.94156843
79	0x3fb83744	1.4391866
80	0x3ee7fc8b	0.45309862
81	0xbde7b983	-0.113146804
82	0x3e8f1420	0.27945042
83	0xbfda6681	-1.7062532
84	0x3f3e2b49	0.742848
85	0x3f5b26e0	0.85606194
86	0x3f0fec9c	0.5622041
87	0x3e15d91f	0.14633606
88	0x3f0ba6dd	0.5455149
89	0x3eda933e	0.42690462
90	0x3d0590bc	0.032608733
91	0xbf79480b	-0.97375554
92	0x3f28bd85	0.65914184
93	0xbdba897c	-0.09108254
94	0xbe656e6d	-0.22405405
95	0xbf6b0d45	-0.9181712
96	0x3db56a2a	0.0885814
97	0xbff841c7	-1.9395074
98	0xbf9c6701	-1.2218934
99	0xbf1f5035	-0.6223176
100	0x3f12a10c	0.5727699
101	0x3da9069b	0.08253213
102	0x3f6a0a6e	0.91422164
103	0x3d28aacd	0.041178513
104	0xbe1c7a92	-0.15281132
105	0xc014bc9c	-2.3240118
106	0x3f5fd3cb	0.87432545
107	0xbf076427	-0.52887195
108	0xbeb88ca7	-0.3604481
109	0x3e47281e	0.19448897
110	0x3ff9a83a	1.9504464
111	0x3f92d602	1.147156
112	0xbea939ae	-0.3305182
113	0x3e3135dd	0.17305703
114	0x3f859698	1.0436583
115	0x3fe6c2c8	1.8028193
116	0xbdae6e45	-0.08517126
117	0x3f0c8159	0.5488487
118	0x3e40ea9f	0.18839501
119	0xbed862ca	-0.4226287
120	0x3f8378f2	1.0271285
121	0xbf31f042	-0.6950723
122	0x3ff436f9	1.9079276
123	0x3ff004ce	1.8751466
124	0x3e2139a6	0.15744647
125	0x3da7d850	0.08195555
126	0xbe183bd6	-0.14866576
127	0xbe877fea	-0.26464778
128	0xc0013f09	-2.0194724
129	0xbdae2705	-0.08503536
130	0x3ff1d6ac	1.8893638
131	0xbf2e539e	-0.6809634
132	0xbfabed29	-1.343175
133	0xbdb18435	-0.086677946
134	0x3eacbaae	0.33736175
135	0x3eff2818	0.49835277
136	0xbf83fa38	-1.0310736
137	0xbf58f018	-0.84741354
138	0xbfb1f23b	-1.3902048
139	0xbf1f6715	-0.62266666
140	0xbfbfcf37	-1.4985112
141	0x3d93d636	0.07218592
142	0xbf2ec0d7	-0.68263
143	0x3f6a6da3	0.9157354
144	0xbe218536	-0.15773472
145	0x3f7a4b1f	0.97770876
146	0x3fe30399	1.7735473
147	0x3f1156f2	0.56773293
148	0xbf8255fd	-1.0182492
149	0xbfb180ed	-1.386747
150	0xbf2d237f	-0.6763229
151	0x3f5a8784	0.8536303
152	0xbe09fed1	-0.13476111
153	0x3e778a75	0.24173911
154	0xbf938eb6	-1.1527927
155	0xbed952a6	-0.42445868
156	0xbf59deb6	-0.85105455
157	0xbd937d0e	-0.07201587
158	0xbed87774	-0.42278636
159	0xbf6a5b1d	-0.9154528
160	0xbfacaf94	-1.3491082
161	0xbebfff89	-0.37499645
162	0xbf26f325	-0.6521476
163	0x3ed2273a	0.41045552
164	0x3e5a72e0	0.21332884
165	0x400a5ec8	2.162035
166	0x3cf87ed2	0.03033391
167	0x3fe6fa9a	1.8045228
168	0x3cd6636e	0.026170459
169	0x3f4b37cf	0.7938203
170	0x3eb3213a	0.34986287
171	0x3eeec59e	0.46635145
172	0xbf07b67b	-0.5301282
173	0x3f78c523	0.97175807
174	0x3f08be64	0.53415513
175	0x3f961a72	1.172682
176	0x3e8bd0d5	0.27307764
177	0x3f592e4e	0.8483628
178	0x3f59736f	0.8494176
179	0xbf97e17b	-1.1865686
180	0x3e44ab00	0.19205856
181	0x3cd6acfc	0.026205532
182	0xbf652041	-0.8950234
183	0x3d64a6b5	0.055823047
184	0x3f89e8de	1.077419
185	0xbe99d30c	-0.30043828
186	0x3dcbc085	0.099488296
187	0x3f0ffa0b	0.5624091
188	0x3f52d2fd	0.8235319
189	0x3fa64261	1.2989007
190	0x3e818292	0.2529493
191	0xbddbdbeb	-0.107353054
192	0xbfd08ae8	-1.6292391
193	0xbff96516	-1.9483974
194	0x3f60a63f	0.8775367
195	0x3fd000b9	1.625022
196	0x3e895027	0.26818964
197	0xbfbab0a4	-1.4585156
198	0xbe97a2f7	-0.2961652
199	0xbef048fc	-0.46930683
200	0x3f4c60c9	0.7983518
201	0xbf789d31	-0.97114855
202	0x3f20bef1	0.62791353
203	0xbf48f996	-0.7850584
204	0x3f27fe27	0.6562218
205	0xbf90a27f	-1.129959
206	0x3e42fb0e	0.19041082
207	0xbf277fa1	-0.6542912
208	0xbe280c18	-0.16410863
209	0xbf9363c4	-1.1514821
210	0x3e2ba72d	0.16762991
211	0xbebc5e97	-0.36790916
212	0xbf5cc2de	-0.86234844
213	0xbf758184	-0.9590075
214	0x3e13e2d5	0.14441998
215	0xbf3f80fe	-0.748062
216	0x3edc2701	0.42998508
217	0x3f8a7671	1.0817395
218	0x3f68d695	0.90952426
219	0x3dc4761f	0.09592842
220	0x3e828d42	0.25498396
221	0x3fa40050	1.2812595
222	0xbeea6a2b	-0.45784125
223	0xbfb2326d	-1.3921639
224	0x3fe76d50	1.8080235
225	0xbe8c5d18	-0.27414775
226	0xbea4287b	-0.32062134
227	0xbfa0b6df	-1.2555808
228	0xbf5b307d	-0.8562086
229	0x3f7f16a2	0.9964391
230	0xbf101cef	-0.5629415
231	0xbf6229cf	-0.88345045
232	0x3e9ba20b	0.30397066
233	0xbfbf0fbf	-1.492668
234	0x3ee784b4	0.45218432
235	0x3ea4ac61	0.32162765
236	0xbfb5d707	-1.4206246
237	0xbfcbb045	-1.5913168
238	0xbf8d4f50	-1.1039829
239	0x3eb16ab5	0.34651724
240	0xbd94406d	-0.07238851
241	0xbf0b671d	-0.54454213
242	0xbfbcf4a3	-1.4762157
243	0xbe802cbd	-0.25034133
244	0x3edbeb94	0.4295317
245	0x3f654a92	0.8956691
246	0x3fedf4f7	1.8590382
247	0xbfc0ed8e	-1.5072496
248	0xbfed3abc	-1.8533549
249	0xbe4ae87f	-0.19815253
250	0x3f4e6518	0.80623007
251	0xbdb097e2	-0.08622719
252	0xbf3fa6e0	-0.74864006
253	0x40001ffa	2.0019517
254	0x3e843dee	0.258285
255	0xbf90beca	-1.1308224

rnn.weight_ih_l0 f4 [128, 128]
0	0x3aea92fa	0.0017896586
1	0x3c3167da	0.010827983
2	0x3d8920ce	0.0669571
3	0x3c51b91c	0.012800481
4	0xbd3b6a1b	-0.045755487
5	0x3d1f9b83	0.038966667
6	0xbd33f9ba	-0.04393933
7	0x3dab0f70	0.08352554
8	0xbcf12adf	-0.029439388
9	0x3decc1e8	0.11560422
10	0xbd959014	-0.07302871
11	0xbd4891a1	-0.048967008
12	0x3dd6d0ea	0.10489066
13	0x3c2968a3	0.010339889
14	0x3dae2872	0.08503808
15	0x3d3f85f0	0.046758592
16	0x3d0d86d7	0.03455242
17	0xbd9d7e5e	-0.07690118
18	0x3ddb23b5	0.1070017
19	0xbc19137b	-0.009343023
20	0xbcf216a4	-0.029551812
21	0x3c682d1b	0.01417091
22	0xbd7f19ee	-0.062280588
23	0x3d13a5dd	0.03604685
24	0x3c3f122c	0.011662047
25	0x3c8b9688	0.017039552
26	0x3d0fee9d	0.03513967
27	0xbca83fa5	-0.02053816
28	0x3c5e5d17	0.013571999
29	0xbba8c786	-0.005150738
30	0x3d6162c8	0.055025846
31	0xbd4a3860	-0.04937017
32	0x3cf2d086	0.029640447
33	0xbc8442c0	-0.01614511
34	0x3cddb487	0.027063621
35	0xbd56ffab	-0.052489918
36	0x3d84f658	0.06492299
37	0x3d8ef62c	0.06980547
38	0x3d1c204f	0.03811675
39	0xbd07c5b7	-0.03314754
40	0xbc791506	-0.015202766
41	0x3a6a3c6b	0.00089353946
42	0x3b1936d3	0.0023378625
43	0xbd6958b7	-0.05696937
44	0x3d918cfa	0.07106967
45	0x3dc32af6	0.095296785
46	0xbbd61b50	-0.0065340176
47	0xbde8f1b8	-0.11374229
48	0x3cf31054	0.029670872
49	0xbcefe83a	-0.029285539
50	0x3d140e69	0.036146555
51	0x3d6ff1e2	0.058580287
52	0x3c066b8f	0.008204355
53	0xbd4fec71	-0.050762597
54	0xbc313a76	-0.010817161
55	0xbd27c908	-0.040963203
56	0xbc874698	-0.016513154
57	0x3df44fed	0.11929307
58	0x3d2aefa3	0.04173244
59	0xbbd2be36	-0.0064313663
60	0xbd2d6780	-0.042335033
61	0xbdb98e57	-0.09060352
62	0xbc7f1cc6	-0.015570825
63	0x3da65834	0.08122292
64	0xbde5128a	-0.11185177
65	0xbd0412d5	-0.032244522
66	0x3c732bb7	0.014841965
67	0xbc03ea5f	-0.008051484
68	0x3dd96b16	0.10616128
69	0x3d0e24d2	0.034703083
70	0xbd79425e	-0.06085431
71	0x3dac58ce	0.08415376
72	0xbd365bb3	-0.044521045
73	0xbde7ea7c	-0.11324021
74	0xbcf40cb4	-0.029791214
75	0x3d7f7e87	0.062376525
76	0xbb3eb343	-0.0029098548
77	0x3dabc060	0.08386302
78	0xbd9b4f6e	-0.075835094
79	0xbd1aa01f	-0.03775036
80	0x3d6eadb6	0.058271132
81	0xbbfba953	-0.007680097
82	0xbcdf41d7	-0.027253075
83	0xbc301d57	-0.010749183
84	0xbd0cf6ab	-0.03441493
85	0x3d101aff	0.035181995
86	0x3d575615	0.05257233
87	0xbc7d5e20	-0.015464336
88	0xbd940a22	-0.07228495
89	0x3de04ec1	0.10952521
90	0xbd23f4cb	-0.040028375
91	0xbd33337d	-0.043750275
92	0xbbd893ef	-0.006609432
93	0x3ddcb696	0.10777013
94	0x3ce7fa1a	0.0283175
95	0xbac210a0	-0.001480598
96	0xbc830470	-0.015993327
97	0x3d7776c2	0.06041599
98	0xbcb7f849	-0.022457259
99	0x3db5acf2	0.08870877
100	0x3ddbcae9	0.107320614
101	0x3dcc1e6c	0.0996674
102	0x3df5eda4	0.12008217
103	0xbd2bbe6e	-0.041929655
104	0xbc7cc55e	-0.015427915
105	0x3c3fcd48	0.011706658
106	0x3d6083da	0.054813243
107	0x3d11de4e	0.035612397
108	0x3d4d981a	0.050193883
109	0xbdee1f5f	-0.11627077
110	0x3d0ccea7	0.034376767
111	0x3cc91a3f	0.024548648
112	0x3d3a34c3	0.045460474
113	0x3dbd08e5	0.09230212
114	0x3d94e568	0.07270318
115	0x3c93fd35	0.018065074
116	0xbdd6fb05	-0.10497097
117	0x3d54c912	0.051949568
118	0x3cc2165f	0.023692308
119	0x3dd6d4d5	0.10489813
120	0xbd4b1a77	-0.049585786
121	0xbc318728	-0.010835446
122	0xbd8b1d52	-0.06792702
123	0xbb4f2738	-0.003160907
124	0xbdc1b828	-0.09458953
125	0xbcca1f54	-0.024673142
126	0x3c061a61	0.008185
127	0x3d265ecc	0.04061775
128	0xbd46486f	-0.04840892
129	0xbb9b68dd	-0.0047427253
130	0x3cc61822	0.02418143
131	0xbccada47	-0.024762286
132	0x3d1a7944	0.037713304
133	0xbdcae512	-0.09906973
134	0x3d6fa23e	0.058504336
135	0xbc3e3374	-0.011608947
136	0xbdaef047	-0.08541923
137	0xbdc9317c	-0.098238915
138	0xbca664ad	-0.020311678
139	0x3d3f238c	0.04666476
140	0xbcaacbef	-0.020849196
141	0xbdd1c4ef	-0.1024264
142	0xbd7b58e5	-0.061364073
143	0xbd143fe5	-0.036193747
144	0xbd6efec5	-0.058348436
145	0xbb172e03	-0.0023068197
146	0x3d53c9be	0.05170607
147	0xbd89f7b9	-0.067367025
148	0x3cfdb51a	0.030970145
149	0x3d398fba	0.045303084
150	0xbc5ce233	-0.0134816645
151	0xbcc0b901	-0.023525717
152	0x3ba21a92	0.004947015
153	0xbdeca42e	-0.11554752
154	0x3d901f24	0.070371896
155	0xbd4a4103	-0.049378406
156	0xbd079cb2	-0.03310842
157	0xbca5afae	-0.020225372
158	0xbdcc0c01	-0.09963227
159	0xbd02ebdf	-0.031963225
160	0x3d8eeb19	0.06978435
161	0xbd870060	-0.065918684
162	0xbda370f2	-0.07980527
163	0x3daa1994	0.0830566
164	0xbc93c7e6	-0.018039655
165	0x3d29d618	0.04146394
166	0x3cc531ed	0.024071658
167	0xbd41baca	-0.047297277
168	0x3da2c407	0.079475455
169	0xbc7e19f0	-0.015509114
170	0xbd1e8a63	-0.038706195
171	0x3d050d1c	0.032483205
172	0xbd21bf23	-0.039488923
173	0x3d735cd8	0.059414715
174	0x3c0abe1f	0.00846818
175	0xbd8502a8	-0.06494647
176	0x3bd14442	0.006386311
177	0x3d8034eb	0.06260093
178	0xbc2b5128	-0.010456361
179	0xbdd83aa3	-0.10558059
180	0x3d60cdbe	0.05488371
181	0x3da3bcb1	0.079949744
182	0x3d3d0074	0.04614301
183	0xbc6ef761	-0.014585347
184	0xbb9d41f5	-0.0047991225
185	0xbba1393d	-0.0049201534
186	0x3d946e18	0.07247561
187	0x3d9fe09c	0.07806513
188	0x3d135d04	0.03597738
189	0x3ccda86f	0.02510473
190	0x3c8be4c4	0.017076857
191	0xbd27aeb6	-0.0409381
192	0x3da6b797	0.08140486
193	0xbd7b3695	-0.06133135
194	0x3cb01fdb	0.021499565
195	0x3bca70b0	0.006177984
196	0x3d9e3aa3	0.07726028
197	0xbdf0fbff	-0.117668144
198	0x3d32066f	0.043463167
199	0x3de29806	0.110641524
200	0x3dac4c32	0.084129706
201	0x3c80d58a	0.015726823
202	0x3c6a1873	0.014288056
203	0xbdf4c429	-0.11951477
204	0xbdbecc5f	-0.093163244
205	0xbb9c2d66	-0.004766154
206	0xbdb17802	-0.08665468
207	0x3b0cd5c1	0.0021489712
208	0xbdbd9ba7	-0.09258204
209	0xbd4cc49b	-0.049992185
210	0xbd963c14	-0.07335678
211	0xbd3c5501	-0.045979504
212	0x3c8dbf94	0.017303266
213	0xbd472292	-0.048616953
214	0xbd4d7584	-0.0501609
215	0xbd8bd7cd	-0.0682827
216	0x3cf49f30	0.029861063
217	0x3c25753f	0.010098754
218	0x3c55b14a	0.013042757
219	0xbca5fa38	-0.020260915
220	0xbd859c3d	-0.06523941
221	0x3d18868e	0.037237696
222	0x3cadd41d	0.021219308
223	0x3cd8ba18	0.026455924
224	0x3d4f6498	0.050633043
225	0x3da88493	0.082284115
226	0xbdf6916a	-0.12039454
227	0x3cc14124	0.023590632
228	0xbdca0886	-0.09864907
229	0x3d30fa95	0.043207724
230	0x3dbbb77e	0.09165858
231	0xbdbb9011	-0.09158338
232	0xbb350676	-0.002762226
233	0xbd52efc1	-0.05149818
234	0xbb2c75f4	-0.0026315423
235	0x3d318088	0.043335468
236	0x3d667c35	0.056270797
237	0xbd484a14	-0.04889877
238	0x3ce1e55c	0.027575187
239	0x3d181559	0.037129734
240	0xbc45d005	-0.0120735215
241	0xbd0428be	-0.032265417
242	0x3dc7af6e	0.097502574
243	0x3d796d4c	0.06089525
244	0x3d6d36a8	0.057913452
245	0xbd9db260	-0.07700038
246	0xbdb5cd37	-0.08877032
247	0xbded87b4	-0.11598149
248	0xbda6792c	-0.081285805
249	0xbc609365	-0.013707017
250	0xbd0b5f63	-0.034026515
251	0xbc04ef82	-0.008113744
252	0x3acfc7af	0.0015852357
253	0x3d911378	0.070837915
254	0xbc735e98	-0.014854096
255	0xbcdc6bf4	-0.026906945

rnn.weight_hh_l0 f4 [128, 128]
0	0x3d72f1e2	0.05931271
1	0xbc93de60	-0.018050373
2	0xbd7d4868	-0.06183663
3	0x3d494797	0.04914054
4	0x3a98150a	0.001160295
5	0x3da19d9a	0.07891388
6	0xbb2ec444	-0.0026667276
7	0xbd6743ee	-0.056461267
8	0xbd6ee1a9	-0.058320675
9	0x3d630df7	0.05543324
10	0xbd32acf5	-0.043621976
11	0x3b9b20bc	0.004734127
12	0xbd7e3446	-0.06206157
13	0x3c9ef6f2	0.019404862
14	0xbc89b63b	-0.016810527
15	0xbd6cd7a6	-0.057822846
16	0xbbebc08a	-0.0071945833
17	0xbc4b98b2	-0.012426542
18	0xbc93e289	-0.018052356
19	0xbd7cab79	-0.061686967
20	0x3c604504	0.01368833
21	0xbb1069a7	-0.002203563
22	0xbce46847	-0.027881755
23	0xbd99f632	-0.07517661
24	0xbd62289a	-0.055214502
25	0x3d280752	0.041022606
26	0xbd17ae55	-0.03703149
27	0xbd8e2287	-0.06940179
28	0x3d685625	0.05672278
29	0x3d3f7058	0.046738
30	0xbd782d44	-0.060590044
31	0x3c2aeffd	0.010433194
32	0xbdb40355	-0.08789698
33	0xbd9fb6b0	-0.07798517
34	0x3c21e437	0.009881071
35	0xbd51b5df	-0.051198836
36	0x3d873762	0.0660236
37	0x3d9d3cd7	0.0767762
38	0xbd5bc1b7	-0.053651538
39	0xbd9bd99a	-0.076098636
40	0x3d41261e	0.047155492
41	0xbd5cd127	-0.0539104
42	0x3d5b3c71	0.05352444
43	0x3c4f70ff	0.012661218
44	0x3cdb98a9	0.026806192
45	0xbc2885b7	-0.010285786
46	0x3c0659f4	0.008200157
47	0x3ce293ed	0.027658427
48	0xbd4fa985	-0.050698776
49	0xbb0cf62b	-0.0021509032
50	0x3d8412d9	0.064489074
51	0x3d13592d	0.035973717
52	0x3cb2bc6a	0.021818358
53	0xbbe84bed	-0.007089129
54	0x3d409f76	0.047027074
55	0x3d81c8a7	0.063370995
56	0xbd87cc04	-0.0663071
57	0xbc66c88c	-0.0140859
58	0x3d161629	0.036642227
59	0x3d35f13e	0.04441952
60	0x3d1cfe87	0.038328674
61	0x3cc2b323	0.02376706
62	0xbcadf76f	-0.02123615
63	0xbb271722	-0.0025495966
64	0x3d83ec5d	0.06441567
65	0x3d4731ae	0.048631363
66	0x3c5c9d32	0.013465213
67	0x3d8a4fb6	0.06753485
68	0x3d2c57a8	0.042075783
69	0x3c17fa30	0.009275958
70	0xbcb66fc0	-0.022270083
71	0x3d084ff5	0.033279378
72	0x3981b308	0.00024738186
73	0xbcecce56	-0.028906982
74	0x3d65ba52	0.056085892
75	0xbba766da	-0.0051086964
76	0xbd7da1db	-0.061921936
77	0xbca5a629	-0.020220833
78	0xbd1a6e21	-0.037702683
79	0x3d4a2b88	0.04935792
80	0xbcd71257	-0.026253862
81	0xbd70b0fd	-0.05876254
82	0xbd935d75	-0.0719556
83	0x3d14f9dc	0.036371097
84	0x3d81163b	0.06303068
85	0x3d002a9d	0.03129064
86	0xbd185c96	-0.03719767
87	0x3c4c96c7	0.01248712
88	0xbd8cc6a1	-0.06873823
89	0xbd505b7e	-0.050868504
90	0xbd3dfab3	-0.046381664
91	0xbda033ee	-0.07822405
92	0xbd666537	-0.05624887
93	0x3d1d1ca9	0.03835741
94	0x3d87bcf7	0.06627839
95	0x3c17d60e	0.009267343
96	0x3cc66ca4	0.024221726
97	0x3d6f4a35	0.05842038
98	0xbc0035a0	-0.007825285
99	0xbd5a0091	-0.053223196
100	0x3c65af05	0.014018779
101	0xbd52fc79	-0.051510308
102	0x3d898962	0.06715657
103	0xbd8306a6	-0.063977525
104	0xbd052d98	-0.032514185
105	0xbd45a5d5	-0.048253853
106	0x3c8c18fc	0.017101757
107	0x3d5e2755	0.05423673
108	0xbd9ed744	-0.077559024
109	0xbbc44bfb	-0.005990503
110	0xbc22c230	-0.009933993
111	0xbca69a76	-0.020337325
112	0x3bfe27ed	0.0077562244
113	0xbc242563	-0.010018679
114	0xbb6eedb0	-0.003645759
115	0xbd8a315f	-0.06747698
116	0xbd4ce377	-0.050021615
117	0x3ca3c90a	0.019993324
118	0x3b84fce1	0.004058466
119	0xbc4aa637	-0.01236873
120	0x3d1069ef	0.035257276
121	0xba0c3e94	-0.0005349901
122	0xbd848439	-0.06470532
123	0x3c37a421	0.011208565
124	0x3dadc775	0.08485309
125	0xbc1d75c5	-0.009610598
126	0x3d7d0632	0.061773486
127	0xbd7053e8	-0.05867377
128	0xbd6b6b1d	-0.057475198
129	0x3d99736e	0.074927196
130	0xbd47fd4e	-0.048825555
131	0xbd995f0a	-0.074888304
132	0x3d48ee60	0.049055457
133	0xbd374f27	-0.04475322
134	0x3c4b6793	0.012414831
135	0xbd81fb9b	-0.06346818
136	0x3c2376cc	0.009977054
137	0xbd0ed79f	-0.0348736
138	0xbcaeef53	-0.021354353
139	0x3d8d95fa	0.069133714
140	0x3cc98822	0.024601046
141	0x3dc50e87	0.096219115
142	0xbd23bd2e	-0.039975338
143	0x3addf128	0.0016932832
144	0x3d7848da	0.06061635
145	0x3d24c68f	0.040228423
146	0x3c38a819	0.011270546
147	0x3d5f807d	0.054565895
148	0x3c8b12de	0.01697677
149	0xbdb0386a	-0.0860451
150	0xbd1fe09f	-0.039032575
151	0xbbedb02f	-0.0072536687
152	0xbd039a9f	-0.03212988
153	0xbd4ab753	-0.049491238
154	0x3d80dc14	0.062919766
155	0xbd8f6a89	-0.07002742
156	0x3ce69c76	0.028150778
157	0x3cdf9aa1	0.027295412
158	0x3d867097	0.065644436
159	0x3ce6e7a6	0.02818663
160	0xbd803963	-0.06260946
161	0xbd758282	-0.059938915
162	0xbc1379c3	-0.009001198
163	0xbd28ae9e	-0.041182153
164	0xbd8fbf45	-0.07018904
165	0x3cfe3568	0.031031325
166	0xbd75f03c	-0.06004356
167	0x3d5ebd57	0.054379787
168	0xbd74c96b	-0.0597624
169	0xbda383a9	-0.079840966
170	0xbd6f9b0c	-0.058497474
171	0x3caef152	0.021355305
172	0x3c2781a4	0.01022378
173	0x3d1add43	0.037808668
174	0x3d260229	0.040529404
175	0x3c99afda	0.01876061
176	0xbd0014dd	-0.031269897
177	0xbd4e23bc	-0.050327048
178	0x3d81ce25	0.06338147
179	0x3bc72f69	0.00607865
180	0xbc20bfc2	-0.009811344
181	0x3cfd17d0	0.030895144
182	0xbd94ee5d	-0.07272027
183	0xbd79d95b	-0.060998302
184	0xbcbbd825	-0.022930214
185	0x3cb4754e	0.022028591
186	0xbd41d261	-0.047319774
187	0xbdaa6dc9	-0.08321721
188	0x3d051e06	0.032499336
189	0x3d70400d	0.058654834
190	0xbd579123	-0.052628648
191	0xbd3d6a13	-0.04624374
192	0x3b150287	0.0022737102
193	0xbd166d4f	-0.03672534
194	0xbb89332e	-0.0041870093
195	0x3c2fe922	0.010736736
196	0x3d289c8b	0.041164916
197	0xbd886a08	-0.06660849
198	0x3d167249	0.036730085
199	0xbbc5c8c5	-0.0060358965
200	0x3b88a22c	0.004169723
201	0xbd6d58a8	-0.057945877
202	0x3d0dcb7b	0.034617882
203	0xbc2ac052	-0.010421829
204	0xbc462935	-0.012094785
205	0xbd7ba253	-0.0614341
206	0xbc6a976c	-0.014318328
207	0x3cdddfe3	0.027084297
208	0x3c88f7f0	0.016719788
209	0x3d8253ca	0.06363638
210	0x3cf08437	0.02935992
211	0xbd0d4e08	-0.034498245
212	0xbc1d66ef	-0.009607061
213	0x3c874224	0.01651103
214	0xbd06acff	-0.032879826
215	0xbd8afbd0	-0.06786311
216	0x3d808469	0.06275255
217	0x3d4acaf7	0.04950997
218	0x3d8a5419	0.067543216
219	0x3d4f8926	0.050667904
220	0xbc94da6b	-0.018170556
221	0xbd2a66a0	-0.041601777
222	0x3cafd54d	0.021464014
223	0x3d1e2ed5	0.03861888
224	0x3d45fc02	0.048336037
225	0xbd6aa824	-0.057289258
226	0x3d1ab0a0	0.0377661
227	0x3cff1236	0.031136613
228	0xbd11a661	-0.035559062
229	0xbca502d7	-0.020142956
230	0xbd38a22b	-0.04507653
231	0x3d827fb1	0.063720115
232	0xbd6385fa	-0.055547692
233	0x3c778a57	0.015108666
234	0xbd875a24	-0.0660899
235	0xbd546fdb	-0.051864486
236	0x3cf5f1a4	0.03002245
237	0xbd741e2e	-0.059599094
238	0xbd3f91c1	-0.04676986
239	0xbd8b12a4	-0.06790665
240	0x3c6d28f4	0.014475096
241	0x3d344ab4	0.044016555
242	0xbd4f0254	-0.05053933
243	0x3cbfe1a4	0.023423024
244	0x3d5793e3	0.05263127
245	0xbcb4d1b2	-0.022072647
246	0x3d957cc1	0.072991855
247	0x3d4a5054	0.049393013
248	0xbd3554ea	-0.044270433
249	0xbc110215	-0.008850594
250	0x3d0be2a5	0.034151692
251	0x3ce97d39	0.028502094
252	0xbcb798ce	-0.02241173
253	0x3cc3e66c	0.023913585
254	0xbd13c485	-0.036076088
255	0x3c4174e0	0.01180765

rnn.bias_ih_l0 f4 [128]
0	0x3cb27c4d	0.021787787
1	0x3d4c2bfe	0.04984664
2	0xbd344ba9	-0.044017468
3	0xbd5f53ee	-0.0545234
4	0xbd1340eb	-0.035950582
5	0x3d595c56	0.053066574
6	0x3d6e22a5	0.05813851
7	0x3b9708ce	0.004609204
8	0x3d2fa86a	0.04288522
9	0xbbed96ac	-0.0072506275
10	0xbcc9bf69	-0.024627404
11	0xbd707049	-0.058700833
12	0xbd0b4dc2	-0.034009703
13	0xbd7adeab	-0.06124751
14	0xbd997039	-0.07492108
15	0x3c68a357	0.0141990995
16	0x3ceb09cf	0.0286912
17	0xbcd27e26	-0.025694918
18	0x3d335a7c	0.043787464
19	0x3d9bb82b	0.076034866
20	0xbcc03589	-0.023463028
21	0x3ce6e2a0	0.028184235
22	0xbca42073	-0.020035004
23	0x3d71a824	0.058998242
24	0x3c814059	0.015777754
25	0x3d56bb1a	0.052424528
26	0x3bbd5525	0.0057779723
27	0xbbc6cff4	-0.0060672704
28	0x3d3767fa	0.044776894
29	0x3d7c35a6	0.0615746
30	0xbbab7655	-0.005232612
31	0xbdd83dfc	-0.105586976
32	0x3d0bdc99	0.034145925
33	0x3d6d491c	0.05793105
34	0xbccd6bd4	-0.02507583
35	0xbcaf61d2	-0.021408949
36	0x3d995d84	0.0748854
37	0x3d4abd30	0.04949683
38	0xbd217484	-0.03941776
39	0x3d4707c3	0.048591387
40	0x3d15374c	0.03642969
41	0x3d6c10cd	0.05763321
42	0x3cb5761a	0.022151042
43	0x3cb810ff	0.022469042
44	0xbd409402	-0.04701615
45	0x3bffc897	0.0078058946
46	0x3d040840	0.03223443
47	0xbd93606a	-0.07196124
48	0x3daa7950	0.0832392
49	0xbd75e7f0	-0.060035646
50	0x3d171fff	0.03689575
51	0x3cc3f450	0.023920208
52	0xbd55f5ee	-0.05223649
53	0x3ca27213	0.019829785
54	0xbcd52c32	-0.02602205
55	0x3d4dc855	0.05023988
56	0x3d830961	0.06398273
57	0xbd83b1b7	-0.06430381
58	0xbbe3b5ac	-0.006949147
59	0x3d203ef3	0.039122533
60	0xbd325bd2	-0.043544598
61	0xbd3d87f6	-0.04627224
62	0x3cc1cf32	0.023658369
63	0x3d7184eb	0.05896465
64	0xbd918de5	-0.07107142
65	0x3cc0eeaf	0.023551313
66	0xbd4adeba	-0.049528815
67	0x3cd87c75	0.026426533
68	0xbd5959a3	-0.053064
69	0x3d415b3c	0.04720615
70	0x3d25c4d7	0.040470924
71	0xbd8f7680	-0.07005024
72	0x3da5f228	0.08102828
73	0x3d005d19	0.031338785
74	0xbbc9bdc8	-0.006156657
75	0x3c045f25	0.008079325
76	0xbcd40be0	-0.025884569
77	0xbd35dd98	-0.04440078
78	0xbd5e2c69	-0.05424157
79	0xba933e75	-0.0011233824
80	0xbd98972c	-0.07450709
81	0xbd8bd88b	-0.06828412
82	0x3ce47793	0.027889049
83	0x3c84f6d8	0.016230986
84	0xbca42b08	-0.02004005
85	0xbd255d45	-0.040372152
86	0x3d40c620	0.047063947
87	0x3d183823	0.03716291
88	0x3da37473	0.07981195
89	0x3d5eb7c6	0.05437448
90	0x3cd088f6	0.025455933
91	0xbd55ba85	-0.052179832
92	0x3c822b97	0.015889926
93	0x3d3ba1a9	0.045808468
94	0xbd1130f7	-0.035447087
95	0x3a925ab7	0.0011165951
96	0xbcb90eec	-0.022590123
97	0xbd82ad0e	-0.06380664
98	0xbd5ef225	-0.054430146
99	0xbd2c914e	-0.04213076
100	0x3d032582	0.032018192
101	0x3d789c68	0.060696036
102	0xbd424b5b	-0.047435146
103	0xbd94e254	-0.07269731
104	0x3d7c54d0	0.06160432
105	0xbcc2917b	-0.023751011
106	0x3d984f2f	0.07436978
107	0xbd87047b	-0.065926515
108	0xbcdc3f1a	-0.026885558
109	0x3d124d40	0.035718203
110	0x3b92149c	0.0044580232
111	0x3ba3d66d	0.004999927
112	0x3da531c7	0.08066135
113	0xbd8807ba	-0.06642099
114	0x3d5d3fde	0.054015987
115	0x3d191c13	0.03738029
116	0xbdb05ebf	-0.086118214
117	0x3c8f3d6d	0.017485345
118	0x3d8a1632	0.06742515
119	0x3b22c3e2	0.0024835994
120	0xbd6c1396	-0.057635866
121	0xbd959238	-0.0730328
122	0x3cf3672b	0.02971228
123	0xbd58ffcf	-0.052978333
124	0x3d27446c	0.040836737
125	0x3dbed97d	0.09318826
126	0x3cca1270	0.024666995
127	0xbceb3707	-0.028712763

rnn.bias_hh_l0 f4 [128]
0	0x3d47812c	0.048707172
1	0x3d94d382	0.072669044
2	0xbd845816	-0.064621136
3	0x3c7bc9d3	0.015367943
4	0xbd1edb79	-0.038783524
5	0x3cbf5cdd	0.02335971
6	0xbce8261a	-0.02833848
7	0xbcbaf784	-0.022823103
8	0x3d85caf7	0.06532853
9	0x3da8f320	0.082494974
10	0x3d49f54a	0.04930619
11	0x3d94c3ce	0.07263909
12	0xbd18586a	-0.037193693
13	0xbd10aff2	-0.035324045
14	0xbcc5ec04	-0.024160393
15	0x3db96b8e	0.090537176
16	0x3daccf9a	0.08438034
17	0xbd5f79d7	-0.054559555
18	0xbd93a40e	-0.07209025
19	0xba8134b6	-0.0009857628
20	0xbb24450c	-0.002506557
21	0x3db9f391	0.0907966
22	0x3d9345a1	0.07191015
23	0xbdbdb677	-0.09263318
24	0x3c0fdac4	0.008780185
25	0x3d15c3f4	0.03656383
26	0x3dbb27d2	0.091384545
27	0x3d4688ed	0.048470426
28	0xba9e1e0a	-0.0012063396
29	0xbcbe0b69	-0.0231988
30	0x3d60d718	0.05489263
31	0x3d811730	0.06303251
32	0x3ce6c1b1	0.028168531
33	0x3da683a4	0.08130577
34	0x3d65a3ab	0.05606429
35	0x3cd6aa99	0.026204394
36	0xbdaeee76	-0.085415766
37	0x3daa9a1c	0.08330175
38	0x3cbea505	0.023272047
39	0x3da6bf94	0.081420094
40	0xbd98fe08	-0.074703276
41	0x3d48f4d7	0.049061622
42	0xbc3252c9	-0.010883995
43	0x3d1081d6	0.03528007
44	0xbd27d1e6	-0.04097166
45	0xbc7eadf6	-0.015544405
46	0xbddd16ae	-0.107953414
47	0xbd7acb9c	-0.061229333
48	0xbd542d1a	-0.051800825
49	0x3d4d0136	0.050049983
50	0x3d1ce727	0.03830638
51	0xbca19272	-0.01972315
52	0x3d70a2bc	0.058748946
53	0x3cc5a023	0.02412421
54	0xbd4d2dc3	-0.05009247
55	0x3bc22c91	0.005925723
56	0x3a9682f9	0.0011483125
57	0x3d86646f	0.06562125
58	0xbdbce7c4	-0.09223893
59	0xbca75421	-0.020425858
60	0x3c7ef8d3	0.015562254
61	0x3c9c7e97	0.019103331
62	0x3d65fc9c	0.05614911
63	0xbd79d9e2	-0.060998805
64	0xbd290d9e	-0.041272752
65	0xbd8039b0	-0.06261003
66	0x3c8d76a4	0.017268486
67	0xbdd2a865	-0.10286025
68	0xbc7eed65	-0.015559529
69	0xbcc7e4c9	-0.024401085
70	0x3d4d6e7c	0.050154194
71	0x3cc6a405	0.024248132
72	0xbd1db8e3	-0.0385064
73	0x3d8e1341	0.06937266
74	0xbd4e2946	-0.05033233
75	0x3cbdd246	0.023171555
76	0xbd0aaa4c	-0.033853814
77	0x3d975614	0.07389465
78	0x3d4eb92a	0.050469555
79	0xbd205785	-0.039145965
80	0xbcd34599	-0.025790023
81	0xbdd13f47	-0.10217147
82	0x3ccb0cb3	0.024786329
83	0xba1b3394	-0.00059204665
84	0x3cfee3ee	0.031114545
85	0xbd1f990d	-0.03896432
86	0x3cd63384	0.026147611
87	0x3d66b80d	0.05632787
88	0xbd25dcaf	-0.040493663
89	0x3ba91f81	0.0051612263
90	0xbcf4c629	-0.029879646
91	0x3d8031bd	0.06259487
92	0xbda944a6	-0.08265047
93	0x3be4def7	0.0069845873
94	0x3cfeb634	0.03109274
95	0x3d848374	0.06470385
96	0xbd9944f2	-0.074838534
97	0x3dd52213	0.1040689
98	0xbc203db6	-0.009780338
99	0xbd1feb9e	-0.03904306
100	0xbd16f062	-0.03685034
101	0xbd3a41ce	-0.045472912
102	0x3d6794af	0.05653828
103	0x3d04f724	0.032462254
104	0x3bd88ad3	0.006608346
105	0xbdc09dfb	-0.094051324
106	0xbd58a244	-0.052889124
107	0x3c41b9e2	0.011824103
108	0xbd9af2ac	-0.07565817
109	0x3d28bb09	0.041193996
110	0xbc7f5299	-0.015583658
111	0x3d5873f2	0.05284495
112	0xbd3a89eb	-0.045541685
113	0x3d830bc4	0.063987285
114	0x3c0d2b81	0.008616329
115	0xbdb1d7a0	-0.08683705
116	0x3d97f52d	0.074198104
117	0x3ce8b773	0.028407788
118	0xbdaadc07	-0.08342748
119	0x3ac16651	0.0014755224
120	0x3cfc96a6	0.030833554
121	0x3d5ca164	0.05386485
122	0x3d6d0b51	0.05787212
123	0xbc8c54cc	-0.017130278
124	0x3d45457c	0.04816197
125	0x3d3094d6	0.04311069
126	0xbbe5f204	-0.007017376
127	0x3bbef15c	0.005827112

fc.weight f4 [109, 128]
0	0x3c2fb637	0.010724596
1	0xbd44f7b0	-0.048087776
2	0x3d512442	0.05105997
3	0x3dbffe28	0.09374648
4	0x3bd0274b	0.0063523403
5	0xbd873734	-0.06602326
6	0xbcc67963	-0.024227804
7	0x3ddc5017	0.107574634
8	0xbd736393	-0.059421133
9	0xbd9495a7	-0.072551064
10	0xbc74ab1f	-0.014933377
11	0xbdd492c6	-0.10379557
12	0x3d562522	0.052281506
13	0xbc1820cb	-0.009285162
14	0x3d599c5d	0.053127635
15	0xbc837de3	-0.016051238
16	0xbd87682f	-0.06611668
17	0x3dc3803a	0.09545942
18	0xbc4e79fd	-0.012602326
19	0x3bca3330	0.006170653
20	0x3cf36e65	0.029715726
21	0x3ddc1f84	0.10748199
22	0xbd6cd9e1	-0.057824973
23	0x3d7298f3	0.059227895
24	0x3d026f3f	0.031844374
25	0xbdf87a8d	-0.1213275
26	0x3d6cb4df	0.05778968
27	0xbd90f335	-0.07077638
28	0xbc87e579	-0.016588913
29	0xbb21a278	-0.002466349
30	0x3d52c75e	0.051459663
31	0x3d9edcd6	0.07756965
32	0xbd406902	-0.046975143
33	0x3d258494	0.04040964
34	0xbc0688d9	-0.008211338
35	0xbcf5cccd	-0.030004883
36	0x3dc3a66d	0.095532276
37	0xbdda7639	-0.106670804
38	0xbd99c823	-0.07508876
39	0x3da55482	0.08072759
40	0xbda87dba	-0.082271054
41	0xbdd0dc9b	-0.10198327
42	0xbdc8fff7	-0.098144464
43	0xbc93f9e1	-0.018063487
44	0x3c135081	0.008991362
45	0x3cfe85ce	0.031069662
46	0x3da5b66b	0.08091434
47	0xbdc49721	-0.09599138
48	0xbd0e998c	-0.034814402
49	0xbd496cdd	-0.049176086
50	0x3df1047d	0.11768434
51	0xbc74b094	-0.014934678
52	0x3d677066	0.056503676
53	0x3d2c2e28	0.042036206
54	0xbd2cd073	-0.04219098
55	0x3d0a0918	0.03370008
56	0x3c683b8a	0.0141743515
57	0x3d368cb4	0.04456778
58	0xbdcdf827	-0.10057097
59	0x3dc465bd	0.095897175
60	0xbd13ca0f	-0.03608137
61	0xbd242167	-0.040070917
62	0xbdcab8ba	-0.09898515
63	0xbdc3fe7c	-0.095700234
64	0x3da63219	0.08115024
65	0x3c9b9d62	0.018995944
66	0x3d41bb66	0.047297858
67	0x3d48a7e4	0.048988238
68	0x3d892b2e	0.06697689
69	0xbc936e58	-0.017996952
70	0x3ca3558b	0.019938251
71	0xbc1c8439	-0.009553009
72	0xbcf5d589	-0.030009048
73	0x3d6d89e8	0.057992846
74	0xbcb45b30	-0.022016138
75	0x3ca91075	0.02063773
76	0xbdd546e3	-0.10413911
77	0xbb823f06	-0.003974798
78	0xbce62f61	-0.028098764
79	0x3d35f9e4	0.044427767
80	0x3c757a31	0.014982746
81	0x3d14a938	0.036294192
82	0xbdf23b87	-0.1182776
83	0xbd437a1f	-0.047723886
84	0xbd9b24f8	-0.075754106
85	0xbcb0c720	-0.021579325
86	0xbcc9c0f2	-0.024628136
87	0x3b026254	0.0019895034
88	0x3da8b5f4	0.0823783
89	0x3daadd91	0.08343042
90	0xbbbb4f7c	-0.0057162624
91	0xbd8ebd16	-0.06969659
92	0x3d506114	0.05087383
93	0xbdf547ed	-0.119766094
94	0x3d889c9e	0.06670497
95	0xbc924cb8	-0.017858848
96	0xbcb62a14	-0.022236861
97	0x3cea5996	0.028607171
98	0x3d47747d	0.048695076
99	0x3dc50acc	0.096212
100	0xbd878aaf	-0.06618249
101	0x3d04e683	0.032446396
102	0xbbc9db82	-0.0061602006
103	0x3cdb0e3c	0.026740186
104	0x3d83aaa8	0.064290345
105	0xbcbbca9b	-0.022923758
106	0x3d05199b	0.032495122
107	0x3c7d6b54	0.015467484
108	0xbd9258fe	-0.0714588
109	0xbd0afa6b	-0.033930223
110	0x3d04009d	0.032227147
111	0xbc79a406	-0.01523686
112	0x3d8c0df8	0.06838602
113	0x3cd1ab1a	0.025594283
114	0xbd9ad24a	-0.07559641
115	0x3d16ee32	0.036848255
116	0x3dc68207	0.096927695
117	0x3d30b4d6	0.04314121
118	0xbdc765e1	-0.09736229
119	0xbc9a24d5	-0.018816391
120	0xbd20a759	-0.039222095
121	0x3d9801ef	0.07422244
122	0x3de8240f	0.11335003
123	0x3d824a5c	0.06361839
124	0xbddb589e	-0.10710262
125	0x3cc635f2	0.024195645
126	0x3dac4a09	0.084125586
127	0xbcfa80fd	-0.030579085
128	0xbd6068f6	-0.0547876
129	0xbdc53e5d	-0.096310355
130	0x3d66987a	0.056297757
131	0xbc096973	-0.008386957
132	0xbd72da3c	-0.059290156
133	0x3d622622	0.055212148
134	0xbb6b243c	-0.0035879752
135	0x3d422718	0.047400564
136	0xbd7bfd4b	-0.061520856
137	0x3d04551a	0.03230772
138	0xbb8a8b52	-0.004228034
139	0xbcbc1696	-0.022959989
140	0x3c61e821	0.013788254
141	0xbdde0e29	-0.108425446
142	0xbda84e25	-0.0821803
143	0xbdea0efa	-0.11428638
144	0x3d3aab30	0.045573413
145	0xbd9ec54e	-0.07752477
146	0x3c657eba	0.014007265
147	0x3bc2acf1	0.0059410264
148	0x3d94dacf	0.07268297
149	0xbd3c54c4	-0.045979276
150	0x3d4bc5b6	0.0497491
151	0xbda5923a	-0.08084531
152	0x3dafa0af	0.0857557
153	0xbddee2b6	-0.108830854
154	0x3dd2316f	0.10263335
155	0xbd1a7da2	-0.03771747
156	0xbc165e4f	-0.009177758
157	0xbd482963	-0.048867594
158	0x3dc6b446	0.09702353
159	0x3d5af7f9	0.05345914
160	0xbdeb658a	-0.114939764
161	0xbb8d0376	-0.004303391
162	0x3c6d570d	0.014486087
163	0x3dbcc8a4	0.09217957
164	0x3d93e657	0.07221668
165	0xbba05d61	-0.004893944
166	0x3d1e8dd7	0.038709488
167	0xbd1897d4	-0.03725417
168	0x3dd663ee	0.10468279
169	0xbd364c6d	-0.04450648
170	0x3d290c3b	0.04127143
171	0x3d33e5d1	0.043920342
172	0xbd9d2e69	-0.07674868
173	0x3db99a70	0.0906266
174	0x3cf8196b	0.030285558
175	0x3d607e9e	0.05480825
176	0x3bbf3c9e	0.0058360836
177	0xbcc7a6c7	-0.024371518
178	0xbd3857f4	-0.045005754
179	0x3cc93da3	0.024565523
180	0x3de48233	0.11157646
181	0xbdbd8cb8	-0.092553556
182	0xbd9b6442	-0.07587482
183	0xbd206984	-0.039163128
184	0xbd6f0329	-0.058352623
185	0xbdf7b078	-0.120942056
186	0x3dab06b5	0.08350889
187	0xbdc76148	-0.09735352
188	0xbce0f369	-0.027459817
189	0x3c97abdb	0.018514564
190	0x3d30412b	0.0430309
191	0xbd2670f9	-0.040635083
192	0xbd18322c	-0.037157223
193	0xbdf81d35	-0.12114946
194	0x3d2481bf	0.040162798
195	0x3d0a90d4	0.033829525
196	0x3dcd1697	0.10014074
197	0xbd48eea1	-0.0490557
198	0xbdb83d93	-0.08996119
199	0xbd261036	-0.040542804
200	0xbc7ecda4	-0.015551958
201	0xbd94fbcf	-0.07274591
202	0x3d2c52a9	0.04207102
203	0x3da12441	0.07868243
204	0x3d0da8d1	0.034584824
205	0x3b6e6e85	0.0036381793
206	0x3acf2cea	0.0015806232
207	0x3dbee4b3	0.09320965
208	0x3c084c06	0.008318907
209	0x3df6ea28	0.120563805
210	0xbda490ce	-0.08035432
211	0xbd25c950	-0.04047519
212	0x3d802bab	0.06258329
213	0xbc6f2b5a	-0.014597738
214	0xbdad684c	-0.08467159
215	0xbd36ab41	-0.044596914
216	0x3cd11ac7	0.025525464
217	0xbc5bcd25	-0.0134156095
218	0x3d88fd1a	0.066889
219	0xbd38c9be	-0.04511427
220	0x3d967319	0.07346172
221	0xbcb1093d	-0.02161085
222	0x3b1bd71a	0.0023779334
223	0xbc79358f	-0.015210523
224	0x3d3c068a	0.045904674
225	0xbd1d6fc4	-0.038436666
226	0xbc00208e	-0.007820262
227	0x3d761e15	0.060087282
228	0xbdad58d2	-0.08464207
229	0x3cee3b7e	0.029081102
230	0x3c308a3b	0.010775144
231	0x3c5e9826	0.01358608
232	0x3d03729a	0.032091714
233	0x39f28d7c	0.0004626325
234	0x3db880e8	0.09008962
235	0x38f4b410	0.00011668366
236	0x3b02ebde	0.0019977014
237	0x3cb5f527	0.022211624
238	0xbc9aa7a4	-0.018878765
239	0xbca4db84	-0.020124204
240	0x3d436d4e	0.047711663
241	0x3d07f8fb	0.03319643
242	0xbafb5a45	-0.0019176683
243	0x3d8d9889	0.069138594
244	0x3d7dd63c	0.061971888
245	0x3cf48215	0.029847184
246	0xbdc919b4	-0.098193556
247	0x3da87d4b	0.08227023
248	0xbd9182ed	-0.0710505
249	0x3d85f92f	0.065416686
250	0x3ceb3043	0.028709536
251	0x3de39299	0.11111946
252	0xbda6a10c	-0.08136186
253	0x3defb294	0.11703983
254	0x3cb5a4c8	0.0221733
255	0x3d548c4d	0.051891614

fc.bias f4 [109]
0	0xbd866121	-0.065614946
1	0x3cfc2068	0.030777171
2	0x3ce91315	0.028451482
3	0x3d0b0c41	0.033947233
4	0x3d8bdf8b	0.06829747
5	0x3ca9cfd5	0.020728985
6	0xbda6b1af	-0.08139359
7	0x3d3e562b	0.046468895
8	0x3d38687d	0.045021523
9	0x3c8c6ebf	0.017142652
10	0xbcf4edc8	-0.02989854
11	0xbb433206	-0.0029784455
12	0xbd55a759	-0.05216155
13	0x3d68baf7	0.05681893
14	0x3c57ae5a	0.013164127
15	0xbcf15a1f	-0.029461918
16	0x3d64ab25	0.05582728
17	0xbcc122c3	-0.023576146
18	0x3d90e011	0.07073987
19	0xbd1b3123	-0.037888657
20	0x3c800acb	0.015630146
21	0x3b9f88ae	0.0048685884
22	0xbced020b	-0.028931638
23	0xbd84f27f	-0.06491565
24	0xbad0b71e	-0.0015923714
25	0x3c83d77a	0.016093958
26	0x3cc56a37	0.024098499
27	0x3d6e2a2d	0.05814569
28	0x3d3df5c9	0.046376977
29	0xbba9fc18	-0.0051875226
30	0x3c4e334a	0.01258547
31	0xbd9c2349	-0.076239176
32	0xbb1a1328	-0.0023509953
33	0x3d88249d	0.066476084
34	0x3c885680	0.016642809
35	0xbd89b518	-0.06723994
36	0xbd418f70	-0.047255933
37	0xbd1a9bb2	-0.03774614
38	0xbcbdc72c	-0.023166262
39	0x3d6bd037	0.057571616
40	0xbc944c51	-0.018102797
41	0x3cbc5d21	0.022993626
42	0xbd716948	-0.058938295
43	0xbc37725f	-0.011196702
44	0xbb942bc1	-0.0045218174
45	0xbd177f5b	-0.03698669
46	0xbd474aa5	-0.04865517
47	0xbd899d47	-0.067194514
48	0xbd9bbcbc	-0.076043576
49	0x3cf59336	0.029977422
50	0xbcdd64f5	-0.02702568
51	0x3d30019d	0.04297029
52	0xbd668230	-0.0562765
53	0xbb3e502c	-0.0029039485
54	0xbd23b545	-0.039967794
55	0x3a05239b	0.0005078853
56	0xbcc90b15	-0.024541417
57	0x3d8727ea	0.0659941
58	0x3c84f238	0.01622878
59	0xbd3250b7	-0.043534007
60	0xbd84969f	-0.06474041
61	0xbd7c3a25	-0.06157889
62	0x3d7c12cf	0.061541375
63	0x3d1d891e	0.038460843
64	0xbd53f0b3	-0.05174322
65	0x3c163620	0.009168178
66	0xbc68a006	-0.014198309
67	0x3d2202d6	0.039553486
68	0x3d341095	0.043961126
69	0xbca32572	-0.019915316
70	0xbd2fdbdc	-0.042934284
71	0xbd0892ea	-0.033343233
72	0x3d1f3e2d	0.038877655
73	0x3d3696d5	0.04457744
74	0x3d0c7d1c	0.034299
75	0x3d417b0c	0.047236487
76	0x3d0e5ddb	0.034757476
77	0x3d6bb66f	0.05754703
78	0xbd5a53eb	-0.053302687
79	0xbd8b5406	-0.068031356
80	0x3d560b9a	0.052257158
81	0x3c114243	0.008865896
82	0xbd102ea3	-0.035200726
83	0xbd5f0449	-0.054447446
84	0x3bb8c8bc	0.005639164
85	0xbd5073ef	-0.050891813
86	0x3ad14f84	0.0015969132
87	0xbcccdabe	-0.025006648
88	0xbd8ae318	-0.06781596
89	0xbd8c9f0a	-0.06866272
90	0xbd88a497	-0.06672018
91	0x3d256b4b	0.040385526
92	0xbd614958	-0.055001587
93	0x3d2fcf46	0.04292228
94	0x3ca0a5c2	0.01961029
95	0xbd815435	-0.06314889
96	0x3d6f075e	0.058356635
97	0xbc757477	-0.014981381
98	0x3abcd5b5	0.0014406951
99	0x3d336a64	0.043802634
100	0x3d9da861	0.07698131
101	0xbcaac820	-0.02084738
102	0xbd8c3e34	-0.06847802
103	0x3c87653a	0.01652776
104	0xbd96fa69	-0.07371981
105	0xbd138d70	-0.036023557
106	0xbd5e48d6	-0.05426868
107	0xbcf93b4e	-0.030423786
108	0xbd1b520a	-0.037920035
