module_5/gener_rnn.pth (torch, 145242 bytes, 7 tensors)

embedding.weight f4 [10, 128]
-0.84931695 2.1504145 -0.79238313 -1.3338724 0.52304864 2.8860643 0.45835868 0.5245613
-0.82254046 0.43901762 1.5489423 1.4561553 -1.0825208 -0.8041347 -0.22365443 -1.0627012
-0.461026 -0.28467146 -0.25043792 -0.07743792 -1.057224 -0.8441293 -2.3014312 -0.38328668
1.2924963 -1.6366888 2.593391 2.3542368 0.19278882 0.21614675 -1.6816218 -0.7690196
0.88667804 -1.1878698 1.8023413 1.7792901 -0.8947125 0.22797495 1.6539407 -1.0276474
0.75787956 -0.34139726 1.5223304 -2.1334035 -1.472239 0.7555053 -1.7400404 1.0180403
-0.32467806 -0.017921332 2.5466278 -0.2531507 0.43438512 -0.31295756 -1.90176 0.650855
0.38736644 0.9677949 -0.062051687 1.0356699 -1.2395846 0.94572157 -0.6383466 0.3834858
-0.47124615 0.58031756 -0.52531576 0.23653506 -0.1338794 -0.2654188 1.4763134 -1.2652012
1.9984814 0.6692322 -0.5825734 -0.52652484 -0.5050213 2.8644657 -1.4681433 1.1952697
-0.44688508 -1.624771 -0.672423 0.76758015 1.3891022 -0.2061869 1.0828753 -1.5239975
2.0049078 0.91304016 2.020349 -0.97096336 -0.46119332 1.8957145 -0.12067363 -1.4934413
-0.9244135 -0.21588665 0.45269075 0.8774631 1.6363446 0.62181175 -0.1828626 -0.36135298
2.461418 1.4883184 0.64167094 0.17782184 -1.8441311 0.49425808 0.06425198 0.9632467
-2.6728716 0.99483806 -0.17839973 0.15773459 2.2109313 3.3557498 -0.44582152 -0.41768986
-1.2639307 0.9124395 2.6122947 -1.3353208 -1.1544604 -1.455929 0.87161136 -0.37526932
0.28521252 -0.44702783 0.7954472 -2.6026776 -0.19895889 -0.4347955 -0.24531314 -0.10971851
-0.21331207 2.8926852 -1.29535 1.0887817 0.5436173 -0.0001301247 0.95829177 1.6921071
-0.5686829 -2.0526335 1.4777566 2.5612352 -1.3110371 2.8461928 -2.1020117 0.43528354
-0.31623328 0.54142857 -0.2418515 0.24929659 -1.3712965 2.6426022 -0.8855346 -0.2276201
-1.909161 0.66666514 1.2446827 -0.7544799 0.041458733 1.7638015 0.27346495 0.6510624
2.6587923 -0.5500745 0.76586574 -0.25537163 1.2300421 1.9900649 1.7871984 -0.49757767
-0.8829495 0.7583006 -1.1643008 -2.3545866 0.7933993 -0.7385394 1.142011 0.21726835
-1.094753 -1.4995028 1.0234535 -0.4987132 -1.48088 0.7347358 -0.49123913 -0.3739894
-1.1188842 -0.054762095 0.4692037 0.08298311 -1.0112122 -0.11067028 0.12865947 0.116236605
1.3554717 0.13516465 -0.664201 1.2494546 -0.84157306 -0.23421991 -0.34639075 -0.50474113
-0.7933662 -0.11692552 3.5387294 -0.3172762 0.05215812 -0.55199504 -1.2283752 0.33397356
0.9817367 1.5750774 -3.1309319 0.09499729 -0.84465015 0.6312866 -0.1491861 -0.61477214
-1.3106246 -0.9168222 -2.3191814 -2.6534584 1.4070746 -0.5897934 -0.19864002 0.06357791
0.6088533 -1.7849144 -0.24483846 -0.12653956 -2.3043299 2.0049043 1.4930344 0.92823344
-0.29661742 0.9760382 1.2427462 1.2120456 -1.4558547 0.28612337 0.9993365 -0.6689354
-2.116212 -0.00020369889 -0.7592846 -0.09345554 0.43321922 2.155171 -1.3660668 -0.18593387
00000000: d66c 59bf 64a0 0940 9fd9 4abf 55bc aabf
00000010: 84e6 053f 47b5 3840 fdad ea3e a649 063f
00000020: 0392 52bf ebc6 e03e be43 c63f 4c63 ba3f
00000030: 0b90 8abf c6db 4dbf ab05 65be 9806 88bf
00000040: 9a0b ecbe 75c0 91be 6639 80be c697 9ebd
00000050: 1e53 87bf dc18 58bf a64a 13c0 273e c4be
00000060: 8570 a53f 057f d1bf 1efa 2540 d1ab 1640
00000070: 6f6a 453e 9355 5d3e 623f d7bf 78de 44bf
00000080: 55fd 623f 1e0c 98bf 1fb3 e63f c7bf e33f
00000090: e10b 65bf 4472 693e 54b4 d33f f389 83bf
000000a0: 6504 423f 9fcb aebe b9db c23f af89 08c0
000000b0: 5472 bcbf cc68 413f a5b9 debf 254f 823f
000000c0: 343c a6be c2cf 92bc f3fb 2240 f89c 81be
000000d0: ba67 de3e f93b a0be df6c f3bf 6f9e 263f
000000e0: e554 c63e 68c1 773f e929 7ebd d590 843f
000000f0: b5aa 9ebf cf1a 723f af6a 23bf 4058 c43e
00000100: 2d47 f1be b18f 143f 187b 06bf 3f36 723e
00000110: ae17 09be f9e4 87be d6f7 bc3f 1df2 a1bf
00000120: 3dce ff3f cd52 2b3f 8823 15bf 55ca 06bf
00000130: 1349 01bf 6853 3740 1fec bbbf 99fe 983f
00000140: 1fce e4be 7ff8 cfbf ea23 2cbf 2280 443f
00000150: 1ace b13f a922 53be a89b 8a3f 5a12 c3bf
00000160: 6950 0040 00bd 693f 664d 0140 0e91 78bf
00000170: 8821 ecbe c6a6 f23f bc23 f7bd 1629 bfbf
00000180: 5da6 6cbf 6411 5dbe 15c7 e73e 6ca1 603f
00000190: bd73 d13f 0e2f 1f3f 5540 3bbe 4203 b9be
000001a0: df87 1d40 3881 be3f 8c44 243f ee16 363e
000001b0: 7d0c ecbf 650f fd3e 8b96 833d 5697 763f
000001c0: 5410 2bc0 b5ad 7e3f 6bae 36be 2d85 213e
000001d0: e67f 0d40 9bc4 5640 b842 e4be 72db d5be
000001e0: 7bc8 a1bf a395 693f d62f 2740 cbeb aabf
000001f0: 5cc5 93bf e25b babf ec21 5f3f 4d23 c0be
00000200: 6007 923e d5e0 e4be 6da2 4b3f 4592 26c0
00000210: e1bb 4bbe 849d debe 5e33 7bbe 19b4 e0bd
00000220: 7b6e 5abe c121 3940 07ce a5bf 335d 8b3f
00000230: 812a 0b3f 1572 08b9 9c52 753f f796 d83f
00000240: 3495 11bf 595e 03c0 2127 bd3f 47eb 2340
00000250: 10d0 a7bf 0628 3640 5c87 06c0 7cdd de3e
00000260: 54e9 a1be 109b 0a3f eba7 77be 9b47 7f3e
00000270: a586 afbf 6520 2940 65b2 62bf 3e15 69be
00000280: 635f f4bf 91aa 2a3f c351 9f3f 9825 41bf
00000290: a2d0 293d 3fc4 e13f 9903 8c3e 07ac 263f
000002a0: a729 2a40 afd1 0cbf c70f 443f 12c0 82be
000002b0: 0572 9d3f 72ba fe3f ebc2 e43f 80c2 febe
000002c0: fa08 62bf fd1f 423f cf07 95bf 8cb1 16c0
000002d0: 371c 4b3f eb10 3dbf 6b2d 923f 987b 5e3e
000002e0: de20 8cbf b5ef bfbf 8600 833f 5657 ffbe
000002f0: 7a8d bdbf a517 3c3f b283 fbbe 8a7b bfbe
00000300: 9937 8fbf 384e 60bd 783b f03e 0cf3 a93d
00000310: 676f 81bf 1aa7 e2bd 4fbf 033e 750d ee3d
00000320: 1980 ad3f 9a68 0a3e 1409 2abf 21ee 9f3f
00000330: 5571 57bf 58d7 6fbe 215a b1be b736 01bf
00000340: 0c1a 4bbf a676 efbd 8b7a 6240 0772 a2be
00000350: c1a3 553d 8c4f 0dbf 663b 9dbf 95fe aa3e
00000360: 1953 7b3f 239c c93f 3061 48c0 f08d c23d
00000370: fe3a 58bf 009c 213f 3ec4 18be b561 1dbf
00000380: 8cc2 a7bf dcb4 6abf 786d 14c0 43d2 29c0
00000390: 051b b43f b3fc 16bf 4a68 4bbe 2335 823d
000003a0: cfdd 1b3f 1378 e4bf efb6 7abe 9693 01be
000003b0: 247a 13c0 5a50 0040 c01b bf3f b5a0 6d3f
000003c0: 3dde 97be a4dd 793f 4f12 9f3f 4f24 9b3f
000003d0: 7259 babf c37e 923e 84d4 7f3f 5a3f 2bbf
000003e0: 0470 07c0 0198 55b9 7a60 42bf 9e65 bfbd
000003f0: e9ce dd3e 52ee 0940 47db aebf 7365 3ebe

rnn.weight_ih_l0 f4 [128, 128]
0.027691334 -0.06860919 0.092785 -0.09295284 -0.14536491 0.2679015 -0.21686499 0.04734933
-0.09903759 -0.0044078776 -0.082165755 -0.10194549 0.043312863 0.030899175 0.18308437 0.22300842
0.107717164 0.09610842 0.14577761 0.0654149 -0.042837493 0.074013375 -0.08016495 -0.16822605
0.052867748 -0.026385026 0.21958753 0.15256085 0.033354208 0.13492489 -0.21359944 -0.1391508
-0.22207673 -0.117997535 0.12332226 0.040234305 -0.16141292 0.052961815 0.0039951657 -0.024024278
0.33859235 -0.18821146 0.3176539 0.010846723 0.018618215 0.04400376 0.0068732533 0.20201175
-0.2637573 0.15290077 -0.03229472 -0.1784996 0.2739819 0.030008556 0.07481765 0.08973223
0.0010020088 -0.033798832 0.12624246 -0.13414457 -0.18127656 -0.017058419 0.104028 -0.17067903
-0.14742225 0.11423773 0.2003352 0.0058505316 -0.20591371 -0.03257103 -0.038236182 -0.026394565
0.23854926 0.03109102 -0.21189073 0.050311346 -0.059202354 0.13429582 -0.081759125 0.078680165
-0.008343122 0.04302235 0.20999353 -0.10101223 0.06740344 -0.109343424 0.014712261 -0.16656752
0.1891419 0.073657975 0.06738036 0.12243025 0.16287895 0.11016803 0.015630214 -0.11837735
0.030993775 -0.21528633 -0.21016517 -0.1771538 0.18079868 0.10536537 -0.018974971 -0.0041954163
0.23629393 -0.08751766 -0.006137886 0.10393046 -0.037882917 0.27862787 0.050716702 -0.090227105
-0.1791498 0.19863299 0.08768033 0.18334426 0.11140525 0.13789149 -0.01623493 0.1566879
-0.14369853 -0.17720895 0.07736681 -0.090174735 -0.26924363 0.09000389 0.0842259 0.05938182
0.08871376 -0.13091809 0.07278439 -0.089370064 -0.18951946 0.030645182 -0.0746853 0.22324847
-0.030283945 -0.08405631 0.16237633 0.11304951 0.17044368 -0.09026568 -0.1203785 -0.1005168
0.05704894 0.04688363 0.08846546 0.17512448 0.10132276 -0.1655051 0.021379901 0.21951474
0.016907811 -0.062420197 -0.12504369 -0.013143651 -0.032005798 0.3079976 -0.028149962 0.025787378
0.080101125 0.10275936 -0.1964137 -0.1106002 0.09881818 0.16251771 0.11730882 -0.17377454
-0.09109423 0.094256565 0.09873559 0.23726052 -0.14267713 -0.13394043 -0.014422485 -0.06697121
0.12889539 0.028366579 0.16254292 0.06250706 0.0692444 0.11892956 -0.01635502 -0.19156219
-0.029134799 -0.27480292 0.04060634 0.018183058 -0.08804336 -0.19297907 -0.009094585 -0.214932
-0.11892069 -0.1953825 0.17884663 0.037201293 -0.06398976 0.09179569 0.04898281 0.0956872
0.04790787 0.17704473 0.09181665 0.1450805 0.13661504 -0.044776466 0.27608523 0.16199616
-0.06755423 -0.15801965 0.1821775 0.22962572 0.00990513 -0.09365904 -0.10596987 0.12220721
-0.07961796 0.1143681 0.078819975 -0.03151357 -0.10243439 0.008652688 0.07109782 -0.12022628
0.01304229 -0.17120132 -0.14017232 0.04411396 -0.08516634 -0.2492522 -0.23255576 -0.037789024
0.030798221 -0.27281687 0.07708607 0.32413244 0.08376506 0.17750315 0.045583747 0.08346673
0.17013079 0.16214207 0.21811281 -0.09700887 0.00852681 0.06643449 -0.09608934 0.06624876
0.094461575 -0.048589382 0.14692907 -0.21269032 -0.0002365422 0.10367517 -0.11101212 -0.08879975
00000000: f0d8 e23c fa82 8cbd 1006 be3d 0f5e bebd
00000010: 8ada 14be 632a 893e db11 5ebe 5ff1 413d
00000020: 38d4 cabd f56f 90bb 8546 a8bd ccc8 d0bd
00000030: d468 313d 4420 fd3c 787a 3b3e 525c 643e
00000040: d19a dc3d 7ed4 c43d ba46 153e 3ff8 853d
00000050: 5e76 2fbd 5394 973d 852d a4bd 7343 2cbe
00000060: da8b 583d 6925 d8bc 8edb 603e e938 1c3e
00000070: 6c9e 083d c029 0a3e d0b9 5abe 8c7d 0ebe
00000080: 1568 63be b1a8 f1bd 6290 fc3d bacc 243d
00000090: 6e49 25be 7dee 583d e1e9 823b 90ce c4bc
000000a0: fa5b ad3e 81ba 40be 88a3 a23e 74b6 313c
000000b0: 3a85 983c 493d 343d 0739 e13b 2bdc 4e3e
000000c0: 320b 87be 0592 1c3e 7847 04bd 99c8 36be
000000d0: 5b47 8c3e 81d4 f53c ff39 993d 88c5 b73d
000000e0: d655 833a a570 0abd b445 013e 325d 09be
000000f0: 90a0 39be 19be 8bbc a20c d53d 7cc6 2ebe
00000100: dcf5 16be 79f5 e93d ac24 4d3e d1b5 bf3b
00000110: 0bdb 52be 3369 05bd 8b9d 1cbd 6a39 d8bc
00000120: 4246 743e 98b2 fe3c e2f9 58be 4513 4e3d
00000130: 2b7e 72bd d884 093e 5471 a7bd 1123 a13d
00000140: 97b1 08bc 3438 303d 8b08 573e 80df cebd
00000150: d10a 8a3d 72ef dfbd b20b 713c ad90 2abe
00000160: 6aae 413e fed9 963d b7fe 893d b6bc fa3d
00000170: bdc9 263e c79f e13d ef0a 803c d36f f2bd
00000180: a8e6 fd3c 0574 5cbe 8a35 57be ce67 35be
00000190: 4a23 393e cdc9 d73d 6671 9bbc b479 89bb
000001a0: 09f7 713e 753c b3bd 5220 c9bb 7ed9 d43d
000001b0: 1e2b 1bbd 50a8 8e3e 51bc 4f3d fdc8 b8bd
000001c0: 0c73 37be 7266 4b3e bf91 b33d 99be 3b3e
000001d0: 7028 e43d 6d33 0d3e 1eff 84bc cb72 203e
000001e0: b525 13be 4376 35be 7d72 9e3d 88ad b8bd
000001f0: 4dda 89be f653 b83d a17e ac3d 5a3a 733d
00000200: 8faf b53d 640f 06be fb0f 953d a707 b7bd
00000210: 6411 42be 9b0b fb3c 9bf4 98bd 3f9b 643e
00000220: 0916 f8bc b725 acbd fb45 263e 8086 e73d
00000230: ca88 2e3e 36dd b8bd 0189 f6bd c1db cdbd
00000240: 26ac 693d 0d09 403d 612d b53d d553 333e
00000250: 4f82 cf3d 2b7a 29be e724 af3c 79c8 603e
00000260: 4082 8a3c 52ac 7fbd 740b 00be 7858 57bc
00000270: 8318 03bd ddb1 9d3e c09a e6bc 0d40 d33c
00000280: 0f0c a43d 8073 d23d ac20 49be 5c82 e2bd
00000290: 3061 ca3d 0b6b 263e 9b3f f03d f4f1 31be
000002a0: 9d8f babd 9609 c13d e335 ca3d 6cf4 723e
000002b0: f419 12be ae27 09be 494c 6cbc 3428 89bd
000002c0: 27fd 033e 0761 e83c a771 263e b403 803d
000002d0: 02d0 8d3d 5791 f33d f7fa 85bc e128 44be
000002e0: 1aac eebc f8b2 8cbe d552 263d a3f4 943c
000002f0: 1450 b4bd 4e9c 45be 7401 15bc 2217 5cbe
00000300: b18c f3bd 5a12 48be 9223 373e 6260 183d
00000310: 100d 83bd 61ff bb3d 33a2 483d a7f7 c33d
00000320: 0b3b 443d 374b 353e 5e0a bc3d fc8f 143e
00000330: d0e4 0b3e 8767 37bd 0b5b 8d3e 52e2 253e
00000340: df59 8abd e7cf 21be bd8c 3a3e 0123 6b3e
00000350: 2049 223c 50d0 bfbd bb06 d9bd c647 fa3d
00000360: be0e a3bd d339 ea3d 5e6c a13d 6014 01bd
00000370: 1fc9 d1bd 01c4 0d3c bc9b 913d 3239 f6bd
00000380: 54af 553c 664f 2fbe 5589 0fbe d7b0 343d
00000390: b16b aebd f83b 7fbe 1923 6ebe aac8 1abd
000003a0: 8d4c fc3c a7ae 8bbe 4ddf 9d3d b0f4 a53e
000003b0: 048d ab3d 63c3 353e 06b6 3a3d 9bf0 aa3d
000003c0: c436 2e3e 9208 263e f758 5f3e 96ac c6bd
000003d0: 09b4 0b3c ce0e 883d 7dca c4bd 6ead 873d
000003e0: 1275 c13d a905 47bd 9374 163e 7ecb 59be
000003f0: 5008 78b9 a653 d43d 535a e3bd a5dc b5bd

rnn.weight_hh_l0 f4 [128, 128]
0.41631433 -0.22167346 0.046811298 -0.102245346 0.30742374 0.33799776 0.008822335 0.034805678
-0.1771589 -0.25490823 0.060688574 -0.1667248 0.2928961 -0.055982023 0.07176718 0.032555338
0.15023594 0.14191909 0.056888845 0.24421331 -0.06861361 0.40735558 0.06848958 -0.18844907
0.009624949 -0.020048428 -0.60527444 -0.092489064 -0.08966165 -0.19121425 0.28586683 0.39627755
0.023189481 -0.15426843 0.13674627 -0.107273676 0.17069644 0.3904347 0.09638225 0.26388186
-0.022606615 0.08140685 0.11653194 -0.041579854 -0.06585218 -0.32534748 -0.2741209 0.5094307
0.08266295 -0.17063017 -0.18802062 -0.14702402 0.10178299 -0.06359961 -0.016548855 -0.454581
-0.17108582 -0.22514528 0.026786136 -0.100995325 0.0038543567 0.20163769 -0.09319388 0.16821566
-0.046312712 -0.0716068 -0.42079058 -0.076654986 0.073257595 0.15804513 0.23161173 -0.17559403
0.12079711 0.1923992 -0.2911292 0.5637541 0.19079414 -0.5145368 -0.24469227 -0.21311198
-0.05679141 0.123615645 -0.14654201 0.11712896 -0.3336409 0.25930566 -0.02320458 0.07191185
-0.08345235 -0.0928401 0.020706475 -0.37750766 0.09577889 0.257941 -0.100716926 -0.2589566
-0.16479388 0.19970053 0.12810592 -0.08802658 -0.2912909 0.01939846 0.19157909 -0.107868955
-0.06517358 0.060996935 -0.32688722 0.10108495 -0.03656489 -0.22147462 -0.03465337 -0.12167529
0.18318337 0.13993706 -0.3622588 -0.34490803 -0.21852562 0.003836022 -0.15290354 -0.07851703
0.0038456388 -0.22728859 0.08740305 0.052235957 -0.36210236 -0.37448177 -0.091168076 -0.18018329
0.2850151 0.34172085 0.06709259 0.07610417 -0.30698752 0.06862795 -0.034812134 0.39152125
-0.246725 0.4353679 -0.25660953 -0.19862427 0.037157316 0.123039894 -0.1502491 0.025147906
-0.07132467 0.21988274 -0.34115043 -0.053482726 0.38857 -0.118296154 0.14003131 0.015432266
-0.09852556 -0.14777718 -0.10093596 -0.01763367 -0.3444135 0.1342351 -0.2593998 -0.5264421
0.16612819 -0.06327692 -0.20252077 -0.23469532 -0.084346846 -0.25486392 -0.3278753 -0.48379013
-0.16883197 -0.2996027 -0.42440212 -0.008196235 0.18222937 -0.32969746 0.07052322 0.09659011
0.089378916 0.06654479 0.27323377 -0.04612881 0.19788727 0.10073085 0.13732086 0.47547024
-0.091778114 -0.15634686 0.28845757 -0.012953881 0.30639625 -0.050992295 -0.19889654 -0.12692875
0.12579736 -0.08870765 -0.042396024 -0.019158445 -0.25191367 0.3236518 -0.097364426 0.29567245
-0.3676898 -0.095454395 0.5689795 -0.5313187 0.31123435 0.10497068 0.21650957 0.34179202
-0.038087506 -0.06090002 0.10761993 -0.29019165 -0.07304386 -0.25361243 -0.16313164 0.01604706
-0.23942366 0.38915032 0.1961947 0.5178811 -0.53006184 -0.45680404 0.26857257 0.1392414
-0.00022924776 -0.33157408 -0.17249866 -0.10514369 -0.014778251 -0.14352018 0.012946355 0.051253654
0.19897111 -0.10395581 0.09920972 -0.08051133 0.09360765 0.59485424 0.61029524 0.5148487
-0.059828702 -0.26901165 -0.10209878 0.60712576 -0.17151938 0.017064443 0.066708006 -0.33555675
-0.19012785 0.067109026 -0.36948794 -0.16492526 0.610896 0.32896316 0.22166249 -0.023772947
00000000: 2727 d53e 5efe 62be 34bd 3f3d 0266 d1bd
00000010: a566 9d3e 0b0e ad3e 8e8b 103c 6690 0e3d
00000020: 2569 35be 5583 82be 9594 783d e8b9 2abe
00000030: 7af6 953e 684d 65bd acfa 923d bf58 053d
00000040: 73d7 193e 3d53 113e 4704 693d 0e13 7a3e
00000050: 4b85 8cbd e990 d03e 4444 8c3d cbf8 40be
00000060: f6b1 1d3c 9a3c a4bc 44f3 1abf e86a bdbd
00000070: 87a0 b7bd abcd 43be 235d 923e e4e4 ca3e
00000080: def7 bd3c 8bf8 1dbe 3707 0c3e 4db2 dbbd
00000090: 0ccb 2e3e 0fe7 c73e 0f64 c53d 861b 873e
000000a0: 8231 b9bc a2b8 a63d 4ca8 ee3d a34f 2abd
000000b0: 82dd 86bd f293 a6be 9359 8cbe 0d6a 023f
000000c0: 314b a93d adb9 2ebe 7a88 40be 778d 16be
000000d0: 9a73 d03d 8340 82bd 7791 87bc d7be e8be
000000e0: 1f31 2fbe 7c8c 66be 996e db3c a3d6 cebd
000000f0: 6099 7c3b 1c7a 4e3e 6fdc bebd ba40 2c3e
00000100: 66b2 3dbd 96a6 92bd dd71 d7be 4afd 9cbd
00000110: 1408 963d 95d6 213e a02b 6d3e ecce 33be
00000120: 7a64 f73d 4c04 453e e30e 95be 3052 103f
00000130: 8a5f 433e afb8 03bf 9c90 7abe 073a 5abe
00000140: 1c9e 68bd 332a fd3d 1c0f 16be 4fe1 ef3d
00000150: fbd2 aabe b6c3 843e 8817 bebc 8546 933d
00000160: 11e9 aabd f322 bebd a0a0 a93c af48 c1be
00000170: b927 c43d d810 843e ad44 cebd f695 84be
00000180: babf 28be 4c7e 4c3e 332e 033e 4847 b4bd
00000190: 1524 95be 85e9 9e3c 4f2d 443e 66ea dcbd
000001a0: ba79 85bd ecd7 793d c35d a7be a005 cf3d
000001b0: 11c5 15bd 3eca 62be b1f0 0dbd e530 f9bd
000001c0: 6c94 3b3e a94b 0f3e fc79 b9be c997 b0be
000001d0: 2ec5 5fbe c565 7b3b bf92 1cbe 89cd a0bd
000001e0: 1d07 7c3b 57be 68be 5f00 b33d 5ff5 553d
000001f0: 7b65 b9be 13bc bfbe 54b6 babd f881 38be
00000200: 80ed 913e 09f6 ae3e d767 893d 81dc 9b3d
00000210: 782d 9dbe d08c 8c3d 2b97 0ebd 7975 c83e
00000220: 7aa5 7cbe 8be8 de3e 5362 83be 2964 4bbe
00000230: 4532 183d 57fc fb3d e6da 19be fb02 ce3c
00000240: ab12 92bd f128 613e 45ab aebe b410 5bbd
00000250: a6f2 c63e 4145 f2bd 5e64 0f3e 9dd7 7c3c
00000260: c5c7 c9bd e752 17be 83b7 cebd 7c74 90bc
00000270: f756 b0be ed74 093e 0dd0 84be e9c4 06bf
00000280: 821d 2a3e 5497 81bd 9b61 4fbe f853 70be
00000290: 0abe acbd 867d 82be 45df a7be 57b3 f7be
000002a0: 4ae2 2cbe 8665 99be 3c4b d9be 8049 06bc
000002b0: 569a 3a3e 1bce a8be 7a6e 903d 09d1 c53d
000002c0: 4b0c b73d a348 883d 4ce5 8b3e 90f1 3cbd
000002d0: f6a2 4a3e fa4b ce3d d79d 0c3e d670 f33e
000002e0: 2af6 bbbd 6419 20be b6b0 933e 843c 54bc
000002f0: f8df 9c3e 4cdd 50bd 89ab 4bbe 9cf9 01be
00000300: 06d1 003e 5bac b5bd 74a7 2dbd 2cf2 9cbc
00000310: d4fa 80be b0b5 a53e 0067 c7bd 6162 973e
00000320: d641 bcbe 987d c3bd a4a8 113f 8104 08bf
00000330: 1c5a 9f3e defa d63d afb4 5d3e 5dff ae3e
00000340: a501 1cbd 4d72 79bd d667 dc3d 0094 94be
00000350: 0598 95bd 7dd9 81be fb0b 27be 2075 833c
00000360: 7a2b 75be b63e c73e 43e7 483e db93 043f
00000370: 22b2 07bf 38e2 e9be 5882 893e 4c95 0e3e
00000380: 3a62 70b9 14c4 a9be 7da3 30be 9355 d7bd
00000390: 7a20 72bc f4f6 12be f31c 543c 5aef 513d
000003a0: 15bf 4b3e c9e6 d4bd 772e cb3d 20e3 a4bd
000003b0: 5eb5 bf3d 5e48 183f 4f3c 1c3f 20cd 033f
000003c0: f10e 75bd e5bb 89be 2a19 d1bd 986c 1b3f
000003d0: c7a2 2fbe bbca 8b3c 359e 883d 18ce abbe
000003e0: e0b0 42be 7570 893d 862d bdbe 2be2 28be
000003f0: ae63 1c3f dc6d a83e 7efb 623e 7cbf c2bc

rnn.bias_ih_l0 f4 [128]
0.18209778 0.0722614 0.008513266 -0.0009344392 -0.06866385 -0.014402081 -0.034546822 0.053633384
0.12800111 0.046906933 -0.23375241 -0.062032163 -0.31428534 0.14177476 0.0033925972 0.38526952
0.006952215 0.1816458 -0.078512534 -0.33504042 0.022609806 -0.5007482 -0.006976873 0.19238642
-0.07159456 0.2369946 0.1862654 -0.008740511 -0.011268374 0.08066334 -0.09734951 -0.17637855
0.040666062 0.17185476 -0.17239203 -0.120028734 -0.17943496 -0.10144467 -0.016178822 -0.023314158
-0.017737819 0.017336026 -0.01802627 -0.039361358 -0.11769109 0.104230374 0.14989139 -0.11610138
-0.05235908 0.18623687 0.035072643 0.048286766 0.15978822 0.025597986 0.033234056 0.09044432
0.017775923 0.023371724 0.011456108 -0.061080143 0.08316853 -0.033390447 0.08081754 -0.06371294
1.1572881e-05 -0.17620653 0.004997174 0.13180764 -0.12882273 0.09554822 -0.293235 -0.060494445
0.1269069 -0.15478788 0.23013072 -0.022360053 -0.14032798 -0.0052154223 -0.13016222 -0.06065407
-0.29685035 0.12487333 0.2680699 -0.017484844 -0.025583694 -0.10835118 0.03808974 0.041348256
-0.1652774 0.07667603 0.21668139 0.018775372 -0.0613102 -0.12816569 0.1243753 0.105735675
0.023077898 -0.03133347 -0.040921617 0.1686161 0.06198285 0.032953527 -0.11159532 0.17621021
0.16984376 -0.03380951 0.019042302 -0.15562347 0.11485243 0.2211873 0.10403307 -0.015447822
-0.031412084 -0.12585135 0.06110684 0.1577134 -0.0010756513 -0.17438275 0.26784495 -0.20350188
-0.1768196 -0.0637581 -0.14059089 -0.03774094 0.16393784 0.031634916 -0.020318959 0.0546372
00000000: d777 3a3e c9fd 933d 3a7b 0b3c 27f5 74ba
00000010: a29f 8cbd b5f6 6bbc f880 0dbd aeae 5b3d
00000020: b912 033e 7c21 403d cb5c 6fbe 7015 7ebd
00000030: 02ea a0be 672d 113e 5656 5e3b 0c42 c53e
00000040: 68cf e33b 5b01 3a3e 2ecb a0bd 6b8a abbe
00000050: 3338 b93c 0931 00bf 419e e4bb f200 453e
00000060: 2ba0 92bd b6ae 723e 5bbc 3e3e 5c34 0fbc
00000070: fc9e 38bc d232 a53d 2e5f c7bd 949c 34be
00000080: 7591 263d b2fa 2f3e 8987 30be a0d1 f5bd
00000090: ccbd 37be 39c2 cfbd 7389 84bc 55fd bebc
000000a0: e74e 91bc 4804 8e3c d4ab 93bc 6039 21bd
000000b0: 0708 f1bd bc76 d53d 217d 193e 8fc6 edbd
000000c0: 7a76 56bd e1b4 3e3e 55a8 0f3d 58c8 453d
000000d0: 869f 233e deb2 d13c 6f20 083d df3a b93d
000000e0: d09e 913c 0f76 bf3c 66b2 3b3c 2c2f 7abd
000000f0: 4354 aa3d 6cc4 08bd ab83 a53d ee7b 82bd
00000100: 2529 4237 7c6f 34be 55bf a33b 95f8 063e
00000110: 1bea 03be c9ae c33d e622 96be 06c9 77bd
00000120: e2f3 013e b780 1ebe 63a7 6b3e 6e2c b7bc
00000130: 23b2 0fbe 22e6 aabb 3f49 05be 6770 78bd
00000140: c5fc 97be 97bd ff3d 7540 893e 603c 8fbc
00000150: e594 d1bc 39e7 ddbd fd03 1c3d ca5c 293d
00000160: 7b3e 29be 5308 9d3d bae1 5d3e cfce 993c
00000170: 6720 7bbd de3d 03be 7ab8 fe3d f28b d83d
00000180: dc0d bd3c 8657 00bd 6d9d 27bd b3a9 2c3e
00000190: bbe1 7d3d 47fa 063d 168c e4bd 7370 343e
000001a0: 86eb 2d3e d77b 0abd 9afe 9b3c c25b 1fbe
000001b0: c037 eb3d ec7e 623e 4a0f d53d dd18 7dbc
000001c0: f5a9 00bd 2ddf 00be 2a4b 7a3d 9f7f 213e
000001d0: defc 8cba 6491 32be f922 893e cc62 50be
000001e0: 3210 35be 9b93 82bd 0ff7 0fbe 3e96 1abd
000001f0: 52df 273e 9d93 013d f273 a6bc 42cb 5f3d

rnn.bias_hh_l0 f4 [128]
0.272548 -0.020140242 -0.09244028 -0.018905 -0.12930918 -0.08578981 0.0050151544 0.18475449
0.16531405 0.022576638 -0.25554678 0.00057800155 -0.23717305 0.06408233 0.027686832 0.37067008
-0.084661536 0.15260875 -0.24273704 -0.2530273 0.11544962 -0.3534484 0.075948656 0.32286528
-0.033436373 0.14812681 0.15795185 0.029286759 0.083241016 -0.0038557232 0.013975366 -0.19967957
-0.0027599323 0.11134401 -0.12708357 -0.058652803 -0.029978914 -0.13401277 0.008948707 -0.100792326
0.09961237 0.047774773 -0.069625005 -0.095463015 0.04099727 0.10289228 0.08773267 -0.11957671
-0.14149885 0.08157062 0.031378195 0.06276447 0.14685757 -0.032116517 0.035138126 0.05485285
0.03840232 0.03488404 0.12246762 -0.043184984 -0.045245398 -0.03350664 0.08689393 -0.03816643
-0.059281316 -0.10322001 0.13087247 0.14533593 -0.099464744 0.13279414 -0.37419868 0.0018546822
0.10027872 -0.10569864 0.17444634 0.019408243 -0.20784034 -0.17774507 -0.06736636 -0.033498965
-0.14236371 0.19271342 0.23072405 -0.008336454 0.094327144 -0.13125594 0.049338643 -0.046795584
-0.20939349 0.019196503 0.11383287 0.049106184 0.014650199 -0.15448584 0.07397846 0.15012981
0.04925185 -0.04533426 -0.20021029 0.080555335 -0.029300433 0.008031525 -0.07400635 0.11388223
0.12577322 0.09214246 -0.036766086 -0.051656574 0.11668895 0.22430328 0.048120134 -0.07250266
0.04273246 -0.13809371 0.04718248 0.13781065 0.08653865 -0.1956592 0.2261675 -0.22604918
-0.1416376 -0.061865292 -0.1845732 0.10618656 0.17425859 0.040821724 -0.044907615 -0.075502045
00000000: 698b 8b3e 26fd a4bc 5451 bdbd a9de 9abc
00000010: a069 04be 91b2 afbd 2a56 a43b 4830 3d3e
00000020: 1648 293e a4f2 b83c 07d7 82be 0785 173a
00000030: 7edd 72be 993d 833d 7fcf e23c 78c8 bd3e
00000040: 0763 adbd 7845 1c3e 0f90 78be cb8c 81be
00000050: da70 ec3d 30f7 b4be f88a 9b3d 994e a53e
00000060: 94f4 08bd 8eae 173e 21be 213e c9ea ef3c
00000070: 447a aa3d 4db0 7cbb eff8 643c cd78 4cbe
00000080: fbdf 34bb 5408 e43d 3222 02be ec3d 70bd
00000090: 5796 f5bc a53a 09be 999d 123c 356c cebd
000000a0: 9201 cc3d 7baf 433d 8e97 8ebd 1d82 c3bd
000000b0: c1ec 273d 30b9 d23d 30ad b33d a2e4 f4bd
000000c0: 13e5 10be 7f0e a73d 6c86 003d a98a 803d
000000d0: d561 163e 9c8c 03bd ffec 0f3d 62ad 603d
000000e0: c04b 1d3d 91e2 0e3d 4ed0 fa3d bde2 30bd
000000f0: 3d53 39bd 423e 09bd 72f5 b13d 6754 1cbd
00000100: f7d0 72bd 0365 d3bd 6f03 063e f1d2 143e
00000110: 2cb4 cbbd 30fb 073e f896 bfbe cf18 f33a
00000120: ee5e cd3d 8778 d8bd 10a2 323e 09fe 9e3c
00000130: 19d4 54be ce02 36be 60f7 89bd 3636 09bd
00000140: cbc7 11be ab56 453e ed42 6c3e 9f95 08bc
00000150: 972e c13d f567 06be 5117 4a3d baac 3fbd
00000160: 3f6b 56be fc41 9d3c 3521 e93d 9123 493d
00000170: 6307 703c 8931 1ebe 0582 973d a1bb 193e
00000180: 4fbc 493d 6bb0 39bd ed03 4dbe 32fa a43d
00000190: 7607 f0bc a896 033c a490 97bd 163b e93d
000001a0: b2ca 003e 30b5 bc3d 0998 16bd d895 53bd
000001b0: 9efa ee3d c2af 653e 9e19 453d 467c 94bd
000001c0: 3b08 2f3d 7068 0dbe 6b42 413d 3c1e 0d3e
000001d0: 2d3b b13d e35a 48be 7498 673e 7079 67be
000001e0: 7209 11be 7666 7dbd c200 3dbe 5778 d93d
000001f0: d870 323e ae34 273d 0cf1 37bd d1a0 9abd

fc.weight f4 [10, 128]
-0.116513826 -0.6476319 -1.0751278 -0.32337034 -0.6100944 -1.3242862 0.49041286 0.9795356
-0.12878413 -0.028077628 -1.1067162 0.62576747 -0.62281716 -0.40117648 0.49968696 0.65904164
0.029690329 -0.72749054 -0.87431026 0.19012429 -0.0538431 1.0329853 -0.079204775 -0.6086076
-0.04272231 -0.9892953 -1.19477 0.9606477 0.3212765 -0.3838898 0.08124995 0.0974165
-0.051823713 -0.8309339 -0.3931293 -0.69456357 -0.019163048 -0.8036974 -0.18656583 -0.33325127
-0.1806485 0.86619824 0.8896042 1.0124903 0.08514924 0.10194419 -0.9286111 -0.014523603
-0.92381585 0.71836823 0.77889436 0.515949 0.16770457 0.41814426 0.37213492 -0.07563169
0.3138173 0.085192986 -0.5092182 -0.6909806 -0.4964197 0.7765577 -0.52547777 0.07891362
-0.6538907 -0.094449855 0.6313161 -0.1576076 0.016003693 -0.91203564 0.13689578 -0.1902409
0.14289293 -0.06645713 -0.08753356 0.036790747 0.8363297 0.5973537 0.049512934 -0.5751104
-0.32774574 -0.57224727 0.16241995 -0.9472194 0.6035283 0.97306657 -0.23744075 -0.27527815
-0.0063136118 -0.21326385 0.8875515 -0.10617376 -0.008789661 -0.82031274 -0.6919915 -0.6478794
0.493929 -0.3383727 0.218651 0.7156138 -0.35306564 0.46774966 0.57609504 0.7717938
-1.3150297 0.9701526 -0.20339628 -1.0191015 -0.02525893 -0.076912805 -0.114230976 0.59085876
-0.58117473 -0.7009559 -0.36859652 -0.07966693 -0.6674388 -0.58483535 0.661683 -0.7726774
0.43275294 -0.6942556 0.51792747 0.8809329 -0.1289064 -0.2448407 -0.116585314 -0.73285556
-0.89973986 -0.0051891264 0.83950305 -0.46190915 -0.92484283 -0.6233845 0.20222466 0.29283738
-0.6542291 0.028813433 -0.02509712 0.6378561 0.4625508 -0.40488112 0.39660242 -1.0275328
0.21966986 0.12168187 0.73291725 0.48141038 -0.2035541 -0.9461049 -0.12104078 -0.21046935
-0.60221535 0.9901327 -0.95019203 -0.9113872 0.6142938 -0.22743182 0.033966325 0.029073339
-0.19928074 -0.15571709 0.57612383 0.782539 0.78686816 0.892053 0.36287963 -0.2079956
-0.48990265 -0.32527724 0.7699227 -0.40571487 0.681232 -0.12761246 -0.8390439 -0.37386015
-0.73568696 -0.7875359 -0.36608735 0.4560561 0.1172367 -0.005441259 0.7372593 -0.039730635
-0.15177862 0.9902812 0.21912229 -0.2516595 0.26782626 -0.8337251 1.0088342 0.0015421468
-0.110469826 -0.55006385 0.4271115 -0.27160934 -0.5803136 0.60511583 -0.48924294 -0.69408536
0.8666758 0.4147795 -0.012447979 -0.05576349 0.2257814 -0.40209478 0.19872752 1.2873124
-0.4212161 0.74281365 -0.30402067 -0.8690572 -0.064403586 -1.0533229 -0.49367404 -0.68905795
0.93516004 0.3501575 1.1752088 -0.0010125296 -0.011915808 -0.035622034 -0.6381613 -0.09583455
0.55100214 -0.4481962 0.10278236 -0.374914 0.7496653 0.7148545 0.59704715 0.5101251
1.100453 0.9849587 -0.18548208 0.56764317 -0.18905015 -0.03473247 1.0925364 0.004820837
0.8611853 -0.062208183 -0.3315587 -0.024054259 0.30706096 -0.731684 0.61045766 0.9003314
-0.6362926 0.20073329 -0.68672067 -0.36353958 -0.043314125 0.6896847 -0.7429247 0.14252204
00000000: cd9e eebd 34cb 25bf ca9d 89bf cc90 a5be
00000010: 262f 1cbf 3682 a9bf 6517 fb3e d8c2 7a3f
00000020: fddf 03be 0e03 e6bc e0a8 8dbf 4c32 203f
00000030: f270 1fbf 0167 cdbe f8d6 ff3e f4b6 283f
00000040: 2239 f33c d23c 3abf ccd2 5fbf f1af 423e
00000050: 958a 5cbd dd38 843f 1d36 a2bd b5cd 1bbf
00000060: 97fd 2ebd 7542 7dbf 39ee 98bf 02ed 753f
00000070: 5a7e a43e 348d c4be 6066 a63d 4d82 c73d
00000080: 1a45 54bd 16b8 54bf 3e48 c9be ebce 31bf
00000090: d3fb 9cbc 1dbf 4dbf 1d0b 3fbe e99f aabe
000000a0: ecfb 38be 2bbf 5d3f 1abd 633f 4899 813f
000000b0: ba62 ae3d 1ec8 d03d 75b9 6dbf 68f4 6dbc
000000c0: 327f 6cbf fbe6 373f 9f65 473f 3c15 043f
000000d0: bfba 2b3e 0117 d63e 7888 be3e cae4 9abd
000000e0: a9ac a03e a979 ae3d 205c 02bf 1be4 30bf
000000f0: b92a febe 7ccc 463f b685 06bf 779d a13d
00000100: 6265 27bf ed6e c1bd ef9d 213f e363 21be
00000110: 2d1a 833c 2b7b 69bf 682e 0c3e 83ce 42be
00000120: 8652 123e ad1a 88bd cc44 b3bd e5b1 163d
00000130: b419 563f 2cec 183f 13ce 4a3d 6f3a 13bf
00000140: 4ace a7be cc7e 12bf 6a51 263e f87c 72bf
00000150: d580 1a3f e41a 793f ab23 73be 42f1 8cbe
00000160: 6ae2 cebb d761 5abe 9336 633f a171 d9bd
00000170: 8302 10bc 0400 52bf 5b26 31bf 6ddb 25bf
00000180: 43e4 fc3e 303f adbe 0ce6 5f3e 7732 373f
00000190: 05c5 b4be e27c ef3e f77a 133f 4794 453f
000001a0: e552 a8bf ec5b 783f 1d47 50be eb71 82bf
000001b0: d1eb cebc 7684 9dbd eef1 e9bd 8542 173f
000001c0: dec7 14bf d971 33bf afb8 bcbe 6a28 a3bd
000001d0: 45dd 2abf c5b7 15bf 0f64 293f 30ce 45bf
000001e0: cb91 dd3e bcba 31bf e596 043f d284 613f
000001f0: 0a00 04be 85b7 7abe 48c4 eebd 6c9c 3bbf
00000200: 5a55 66bf 8c09 aabb ace9 563f 5b7f ecbe
00000210: 80c2 6cbf 2096 1fbf fb13 4f3e c8ee 953e
00000220: 8f7b 27bf 260a ec3c 7a98 cdbc 8a4a 233f
00000230: 75d3 ec3e 944c cfbe 790f cb3e 3286 83bf
00000240: 23f1 603e 5834 f93d 77a0 3b3f 6c7b f63e
00000250: 7c70 50be ee33 72bf 3ae4 f7bd 4785 57be
00000260: c92a 1abf 5679 7d3f c93f 73bf ac50 69bf
00000270: 5c42 1d3f e3e3 68be 4620 0b3d 362b ee3c
00000280: 4010 4cbe 4d74 1fbe da7c 133f 7a54 483f
00000290: 3170 493f 965d 643f 5ccb b93e ccfc 54be
000002a0: 85d4 fabe bd8a a6be a719 453f dcb9 cfbe
000002b0: 3865 2e3f d7ac 02be 95cb 56bf 996a bfbe
000002c0: fb55 3cbf f49b 49bf cd6f bbbe 2f80 e93e
000002d0: cc19 f03d 974c b2bb 07bd 3c3f 97bc 22bd
000002e0: db6b 1bbe 1283 7d3f 9861 603e 84d9 80be
000002f0: 8620 893e 026f 55bf 7b21 813f dc21 ca3a
00000300: 013e e2bd fcd0 0cbf 5cae da3e 6110 8bbe
00000310: 6f8f 14bf dfe8 1a3f 0d7e fabe 94af 31bf
00000320: 77de 5d3f fb5d d43e 9cf2 4bbc 4268 64bd
00000330: 3d33 673e 5edf cdbe 3a7f 4b3e a7c6 a43f
00000340: a3a9 d7be 0929 3e3f 99a8 9bbe 887a 5ebf
00000350: 07e6 83bd 49d3 86bf d8c2 fcbe 1a66 30bf
00000360: a666 6f3f d847 b33e 3e6d 963f dbb6 84ba
00000370: 853a 43bc 69e8 11bd 8a5e 23bf e844 c4bd
00000380: 7a0e 0d3f f979 e5be 8f7f d23d baf4 bfbe
00000390: 11ea 3f3f b400 373f 15d8 183f 8f97 023f
000003a0: a5db 8c3f 4126 7c3f 04ef 3dbe 1051 113f
000003b0: 5d96 41be a243 0ebd 3cd8 8b3f 1df8 9d3b
000003c0: a476 5c3f 02ce 7ebd 10c2 a9be 700d c5bc
000003d0: 1837 9d3e a54f 3bbf f446 1c3f 1e7c 663f
000003e0: 12e4 22bf 078d 4d3e edcc 2fbf dc21 babe
000003f0: 276a 31bd 2d8f 303f 5030 3ebf 4cf1 113e

fc.bias f4 [10]
0.051108856 -0.16725813 0.103712864 -0.10660912 -0.053971685 -0.13422729 -0.089048795 -0.13268313
0.12206637 -0.047421303
00000000: 8557 513d b745 2bbe 6967 d43d e255 dabd
00000010: 6a11 5dbd e172 09be 375f b6bd 16de 07be
00000020: effd f93d d73c 42bd
