module_5/gener_lstm.pth (torch, 541541 bytes, 7 tensors)

embedding.weight f4 [10, 128]
00000000: 2b55 e93f 0324 4abf 5b8f 343f 81e0 0e3e
00000010: 4469 84bf e7cc 1640 541e 513f c0a4 92bf
00000020: 87bb c23f 8aba 4ac0 1cda 85bd 88eb 5e3e
00000030: 24a8 1440 fce1 843e 8dd5 c5bf 54c1 b0bf
00000040: 2f53 82bf 9231 483f 377b edbe b903 d1bf
00000050: d20d a0bf ff98 cabd 12dc b6be 8e0b dd3e
00000060: eb1e 863f 00fd 0b3f 73a3 343f b830 87bf
00000070: 527b 943f 2319 70c0 3417 68bf 84ae bb3f
00000080: be61 9cbe 19b1 7dbf 04f0 b2bf 351b d3be
00000090: 6de8 9d3d be4d b6bf 16ec f13f 5c45 51be
000000a0: fce1 a4bf 38f2 13c0 1c01 d3be 843e 52bf
000000b0: 6ab0 a9bf 2cb9 4bbe d81e 5a3f 1d26 b13e
000000c0: 6a40 4ebd 94c9 2b3e e342 02bf 57b0 aabf
000000d0: bd2e 21bf e6a1 cc3e 56d2 dbbf f74f fc3f
000000e0: a342 35bd 4799 77bd eb3f 69be 0381 c1bf
000000f0: a3c9 fcbf 5468 85bf ce80 7cbf 7e60 4c3f
00000100: 1a7b 20bf ddc6 2fbf a856 ddbc e513 88bf
00000110: 20ba de3e 5ed4 d13f dbb0 cebf d904 673f
00000120: 7bb3 6440 8c5f d63e f7a7 8e3f a310 eb3f
00000130: 9673 993e 9172 eebe 480f 48bf 61eb 4cbd
00000140: c43d d7bd b8ab 733f f5d3 ecbf e69c 19bf
00000150: c4a4 0ac0 7493 fc3f bc8c 4f3e bfe5 40bf
00000160: 59bd 5dbe 5192 553f e8e7 c5be 32c9 42be
00000170: 626d edbf eeea 70bf db8c b23f 06bb f6be
00000180: 0ccd 0cbf d3f3 d8be 4d7a 97bf 1883 0fbd
00000190: b8d1 edbf 1118 4f3f 80af 12be d4a7 d43f
000001a0: 944e 00bf 2fd8 8eba 0ce0 24be 63bb 8ebf
000001b0: e079 0840 c0e4 b73f 683c 893f 417d f23f
000001c0: 07e5 58bf 609c ef3e c13b 4b3f 57e0 dcbe
000001d0: 94dd 873f 97a9 0040 2a56 f5bd 47d7 e5bf
000001e0: 90cf 9c3f e2dc b9bf 93a3 983f c450 7b3f
000001f0: 304e 89bf 4d16 e5bf 68ce 233f 2d27 0ac0
00000200: 7e0d 963f 8298 9d3f 3a6e ff3c c3cb 523f
00000210: 92e6 5abf 7d9c 78be 8af7 3fbe 3d21 503f
00000220: 1eb7 09bf 84f2 e7bf 24d5 a73f d280 493f
00000230: 7080 0a40 2369 07bf e9c3 bfbf 2beb 0540
00000240: 1c86 b1be 2b4d 593f 1fd9 6c3f 451d 993d
00000250: 84e0 2dbc 8bc3 babf 085f abbd 6d35 423d
00000260: 89d0 f43e a3ae 25bc 3039 b2bf 2a42 43be
00000270: ed7e f03e 2b18 53be 3f36 95bf f979 e33e
00000280: eef2 92bd 5c32 ecbe dade 06be 728d e33c
00000290: c4d1 e13c 68e0 973e 6e9f acbf a54a 3a40
000002a0: 3da0 acbf 7341 0d3f ef83 f9bf b6d3 c2be
000002b0: d115 b4be 1be1 c5be 1e05 d1bf b583 9cbe
000002c0: f090 e73f 2eab 223f 081c 9fbf eef9 643f
000002d0: 7cdc 0ac0 9700 463e 03c7 80bf b65d b13f
000002e0: 5f44 c23f eb74 bc3f 9b1a 80bf 6e2d 5bbf
000002f0: 050f f3bf 2df6 b43f 0fee a2bf 8eba 833f
00000300: e02a b43e e75e d0be 40db c63f 3c39 943f
00000310: e835 383f 96a1 603f 7736 41bf 7af7 f6bf
00000320: 6a2c 93bf 6a09 73bf 7454 5f3f 687c e9bd
00000330: 406d 963f fe7d a2bf 7ce4 0740 e5a9 0240
00000340: f9f0 183f a3c6 a4bf 20e9 283f 6f60 e03f
00000350: ee9c 73be 890d 0cbf 2550 f2bd 8e9e 013f
00000360: 60a4 c53f de5f e1be a7ec f03f b99e 36bf
00000370: a97b 183e e567 ea3e dfe5 6e3e 50da a73f
00000380: bb00 0f3e 78f6 6dbf bc5d a13f 72b9 3c3c
00000390: ed3b 27bf 3ca6 9cbf 6f6b a6bf 170e 05be
000003a0: 1cb2 08bf 291c 393e 03c0 e23e 0c5d 0ebf
000003b0: aad1 1040 e5d5 80bd d746 2ebf 56b3 a6be
000003c0: a672 3740 4f96 193f 1ef5 6abc b10f db3e
000003d0: 452d c4bf e3a6 843f 2c4d 673f c627 f5be
000003e0: 9e95 453f 660d 133f 91cd 90be 3b1c 1a3f
000003f0: 7351 943f 2e9d ecbf e3a5 9a3e 69e1 42bf
1.8229116 -0.789612 0.70531243 0.13952829 -1.0344625 2.3562562 0.816869 -1.1456528
1.5213479 -3.1676354 -0.06535742 0.21769536 2.3227625 0.25953662 -1.5455796 -1.3808999
-1.0181636 0.7820064 -0.46383068 -1.6329261 -1.2504218 -0.09892463 -0.35714775 0.43172878
1.0478185 0.5468292 0.70561904 -1.0561743 1.1600134 -3.7515342 -0.90660405 1.4662633
-0.3054332 -0.99098355 -1.3979497 -0.41231695 0.07710347 -1.4242475 1.8900173 -0.20436615
-1.2881465 -2.3116589 -0.41211784 -0.8212664 -1.3256962 -0.19894856 0.85203314 0.3459939
-0.0503544 0.16776115 -0.5088331 -1.3335065 -0.6296194 0.3996727 -1.7173564 1.9711903
-0.044253003 -0.06044891 -0.22778289 -1.5117496 -1.9749035 -1.0422463 -0.9863404 0.79834735
-0.6268784 -0.68662816 -0.02701886 -1.0631071 0.43501377 1.6392934 -1.6147722 0.9024177
3.5734546 0.4186977 1.1145009 1.8364452 0.29970998 -0.46571782 -0.7814832 -0.050029162
-0.10509828 0.95183897 -1.8502184 -0.60005033 -2.1663065 1.9732499 0.2026853 -0.75350565
-0.21654262 0.83426386 -0.38653493 -0.19022062 -1.8549006 -0.94108474 1.3949236 -0.48189563
-0.55000377 -0.42373523 -1.1834198 -0.03503713 -1.8579626 0.808961 -0.1432476 1.6613717
-0.501199 -0.0010898168 -0.16101092 -1.1150936 2.1324387 1.4366684 1.072156 1.8944474
-0.8472447 0.46798992 0.7938805 -0.43139908 1.0614495 2.010351 -0.11979325 -1.7956322
1.2250843 -1.4520533 1.1924919 0.98170114 -1.0726986 -1.7897431 0.63986826 -2.158641
1.1722867 1.2312167 0.03118049 0.82342166 -0.8550807 -0.24278446 -0.18746772 0.8130072
-0.5379504 -1.8120885 1.311192 0.7871219 2.1640892 -0.528948 -1.4981662 2.0924785
-0.3467263 0.84883374 0.925188 0.07476286 -0.010612611 -1.4590925 -0.08367735 0.047414232
0.4781535 -0.010112437 -1.3923702 -0.19068208 0.46971837 -0.20614688 -1.165718 0.44428995
-0.071752414 -0.4613217 -0.13170949 0.027777407 0.027565844 0.29663396 -1.3486154 2.910806
-1.3486401 0.5517799 -1.9493388 -0.38052148 -0.35172895 -0.38648304 -1.6329687 -0.30569234
1.8091106 0.6354245 -1.243043 0.8944386 -2.1697073 0.19336163 -1.0060734 1.3856723
1.5177115 1.472318 -1.0008119 -0.85616195 -1.8988959 1.4137627 -1.27289 1.0291307
0.3518896 -0.40697405 1.553566 1.1579967 0.71957254 0.8774656 -0.7547373 -1.9294274
-1.1497929 -0.9493624 0.8723824 -0.11400682 1.175209 -1.26947 2.1233206 2.0416195
0.59742695 -1.2873119 0.6598072 1.7529429 -0.23790333 -0.54708153 -0.118316926 0.5063256
1.5440788 -0.44018453 1.882222 -0.7133594 0.14890923 0.4578239 0.23329876 1.3113499
0.13965122 -0.92954206 1.260673 0.011518823 -0.65325814 -1.2238231 -1.3001536 -0.12993656
-0.53396773 0.18077148 0.44287118 -0.5561073 2.2627969 -0.06290797 -0.68076843 -0.32558697
2.8663726 0.5999498 -0.014340667 0.4278541 -1.5326315 1.036343 0.9035213 -0.47881907
0.7718142 0.5744232 -0.28281835 0.60199326 1.1587356 -1.8485467 0.30204687 -0.761252

rnn.weight_ih_l0 f4 [512, 128]
00000000: d67e f63d 5923 37be e8f7 643d 3954 313e
00000010: d8ab 06be fa8c 7d3d b099 c43d 4fe3 09bc
00000020: d850 1a3d aebc 24be d667 57bd c1c7 3c3d
00000030: f64c 243e b7be a5bd 9c10 983d a674 743e
00000040: 7653 8b3b 787b 41be 9b45 16be 4528 0c3d
00000050: 853a 54bd 9c24 4fbe 7ba0 9bbb 1321 fabd
00000060: 1242 2cbd 1840 9d3c fedd d2bd b2bf 8f3d
00000070: 8f7d ec3d 2d62 a03c fe81 03be 6015 283d
00000080: 3587 243e 04fc 143e 0c68 d93d b149 703d
00000090: af0c 0d3d 33b1 c3bd 70b9 c0bc 6a29 733e
000000a0: 8fdb 48bd 7357 823c edb0 88bd d96d ec3d
000000b0: 11cd f2bd 7a44 9fbd 0584 00be ff51 2d3e
000000c0: 7876 a73b aa5f b7bc c7a6 4c3d 0ed6 8639
000000d0: 30e6 18be 733a 793c aa72 19be b898 4fbb
000000e0: 51f2 a1bb 33f7 c33d a9d3 04bc 16ba a63d
000000f0: d777 41be c690 8fbc 835e 19bd 7d14 1d3e
00000100: bbcc 94bd 7398 e0bd 4996 6a3d c5d9 e2bd
00000110: 7e78 c6bd 1583 203d ba49 76bd 1677 8b3d
00000120: 548d 283e 6bfa 3dbe 5732 153e 7cb5 5c3c
00000130: a962 8b3d 9278 443d 2313 c43d 3682 c9bd
00000140: 4aff aebd 6eb7 fdbd 6107 7b3b 6b9f 083c
00000150: 8604 9c3d 4180 843e 051f bdbd 06b9 2abe
00000160: 75df 24be 5048 ef3d 28b6 57bc 2c4a 143d
00000170: 688d 75be 04a5 5ebd add1 323e 0d8e 55be
00000180: 9034 48be 01f4 d43d 4317 7dbd c295 51bd
00000190: c84a 35be f23b 503d ea7c 893b 5f4f 803c
000001a0: 9239 743d 8af1 df3d 83bc 36be ae3f 73be
000001b0: e82a a4bd c341 5c3d 8f78 fbbd 7456 da3c
000001c0: 21eb 9b3d 7da7 443e d6f0 93bd 161f 6c3e
000001d0: 0a4a 073e 73bd 983c e4bf 5f3e 68e9 97bd
000001e0: e538 d93d ea8b acbc fcfd 263d 7d58 813e
000001f0: 58eb f73d cf6a 42be d555 433c e373 2fbe
00000200: 6123 933e aa9f 51bc 40d6 87bd 198d 0e3e
00000210: 2c27 0bbe 7452 113e be06 7abd 9b0e 8ebd
00000220: 35c2 873d 1ed2 b2bd 6cd6 7fbd ec72 893d
00000230: 41af 873e b6b9 4bbe c51d 61bd 8c49 873e
00000240: 2591 823d 3a17 60be 0c16 48be 605b 413d
00000250: e139 10be 5975 6c3c b808 86be e7e8 98bd
00000260: 5b5f 493c 70eb 713e 580d 24be e2e5 8abe
00000270: c17d db3c e006 8bbd 7aab 1dbe 5ce8 023e
00000280: d50d 543d 0813 5a3d 6987 f9bd b12f bbbd
00000290: 0f97 3bbe 7b36 2fbe fcee 26be a088 903e
000002a0: a265 efbc fd5f 0fbe 00eb 32bd 75b9 2bbc
000002b0: 066f bcbe 3c0c db3d d299 a2bd ea9b 983e
000002c0: dc0d 953e 33a5 f9bb 9606 2cbd 0b77 d43d
000002d0: 5b23 0cbe e618 61be 81b0 8cbe 59a6 e13c
000002e0: 4aec 533e 119c aa3d 7c6e 54be 5c0c 32be
000002f0: 4ce5 e4bd efb4 0e3e e264 8dbc 656d 863e
00000300: eb69 7cbe b253 6cbe 3d0c adbd ac96 3f3d
00000310: 78f9 1cbe ccef 6abd 260f 8ebe 4949 19be
00000320: c8c3 213e 96c1 51be cedb 0e3e 658d fc3d
00000330: 2c9b 453e deef 92bc 23a3 533d 5a67 213e
00000340: 6289 06be a891 403c c7fe 0e3d 78ef 0a3e
00000350: 367f 4cbd 7eae 043e eb65 5fbe fdf8 c4ba
00000360: 0bf2 12be 6dd2 cebd 48a6 7c3d 7edf 07be
00000370: 3bdd 8dbe 77f6 89bc 8eec 173d 34b5 b03a
00000380: 896b 4fbe 351f 13bd e7b0 c63d a96f 29be
00000390: 2319 f7bd 3a4d 27be 2600 3fbe 7a73 0f3e
000003a0: c613 793d 6f13 053e f5bf 97be 34e6 07be
000003b0: 257c 5e3d 9a44 aebd 0d53 c93c 5b41 ef3d
000003c0: 3fc7 ef3c 8a7f b0bb 9a1f 12be 390d ff3d
000003d0: 0c0f b43b e557 e2bb da9c e73d a84a 80be
000003e0: 675b 8f3d ec94 b73d 363d 8d3d 9169 823e
000003f0: c616 50bc a0e9 9abe 547c 073e 2dba 74be
0.12035911 -0.17884578 0.055900484 0.17317285 -0.1315149 0.061902024 0.09599626 -0.008416011
0.037674755 -0.160876 -0.05258926 0.046088938 0.16044983 -0.080930166 0.07425043 0.23872623
0.0042518927 -0.18894756 -0.1467499 0.03421809 -0.05181362 -0.20228809 -0.0047493554 -0.1221334
-0.042055197 0.019195601 -0.10296248 0.07018985 0.11547386 0.019578064 -0.12842557 0.04103601
0.16067202 0.14549261 0.106155485 0.058664028 0.034435924 -0.095552824 -0.023525923 0.23746267
-0.049037512 0.01591084 -0.06674371 0.11544389 -0.118555196 -0.07776733 -0.12550361 0.1692581
0.005110558 -0.022384483 0.04996374 0.00025717955 -0.1493156 0.015211689 -0.14985147 -0.003167672
-0.0049422164 0.09568634 -0.008107104 0.08140962 -0.18893372 -0.017525088 -0.03744365 0.15339847
-0.07265612 -0.109665774 0.05727223 -0.110766925 -0.09690951 0.03918751 -0.060128905 0.06809823
0.16460162 -0.18552558 0.14569984 0.013471004 0.06805927 0.047966547 0.095739625 -0.09839289
-0.08544786 -0.12388502 0.0038303959 0.008338789 0.0761805 0.258791 -0.09234432 -0.16672143
-0.16100867 0.116837144 -0.013165988 0.03620355 -0.23979723 -0.05435659 0.17462797 -0.2085497
-0.19551301 0.103981026 -0.061789762 -0.05116821 -0.17704308 0.05083842 0.004195799 0.015662847
0.059625216 0.10934742 -0.17845349 -0.2375476 -0.08015996 0.053773653 -0.12278854 0.026652552
0.07613207 0.19204517 -0.0722367 0.23058733 0.13211837 0.018645024 0.21850544 -0.074175656
0.10606555 -0.02106281 0.040769562 0.25262824 0.12105435 -0.18986057 0.011922319 -0.17134051
0.2873793 -0.012794415 -0.06632662 0.13921012 -0.13589162 0.1419161 -0.061041586 -0.069363795
0.06628839 -0.08731483 -0.062460348 0.06711373 0.26500896 -0.19895062 -0.05496003 0.264233
0.0637534 -0.2188386 -0.1953966 0.047206283 -0.14084579 0.014432275 -0.26178527 -0.074662976
0.012290801 0.23624969 -0.16020715 -0.27128512 0.026793363 -0.06788421 -0.15397444 0.1278395
0.051771004 0.053240806 -0.121840306 -0.09139956 -0.18319343 -0.17110626 -0.16302103 0.28229237
-0.029223267 -0.1400146 -0.043681145 -0.010481228 -0.36803454 0.10695693 -0.07939495 0.29806453
0.29112136 -0.0076185702 -0.04199847 0.10374268 -0.13685362 -0.21982154 -0.27478412 0.027545141
0.20695606 0.083305486 -0.20745271 -0.17387527 -0.111765474 0.13936208 -0.017260019 0.26255336
-0.2464978 -0.23078802 -0.084496 0.04677455 -0.1532954 -0.057357594 -0.27745932 -0.14969362
0.15797341 -0.20484003 0.13951036 0.12331656 0.19297475 -0.017936643 0.05166925 0.15762082
-0.13138345 0.011753477 0.034910943 0.13567913 -0.049926005 0.12957188 -0.21816222 -0.0015027818
-0.14350145 -0.10098729 0.061682016 -0.13268849 -0.27707848 -0.016841156 0.03709083 0.0013481737
-0.20255865 -0.035918433 0.0970171 -0.16546501 -0.12065341 -0.16338053 -0.186524 0.14008895
0.060809873 0.12995695 -0.2963864 -0.1327141 0.054317612 -0.085091785 0.024575735 0.116823874
0.029269813 -0.0053862976 -0.14269868 0.12453694 0.005494958 -0.0069074505 0.11309214 -0.25056958
0.069998555 0.089639515 0.06896441 0.25471166 -0.012700742 -0.30256367 0.13231021 -0.23899145

rnn.weight_hh_l0 f4 [512, 128]
00000000: 3ac3 ac3e e583 233e aac5 293e ca0e c6bd
00000010: 2be3 053e 44b8 373e 9f8d 923e 58ff 42be
00000020: b03a 1fbd ad2d 26bd fa5a 03be f846 5a3e
00000030: 3ce9 f63c 51ee f33d 2685 fabd a3b2 043e
00000040: ea33 efbd 829d b73c cf73 543d 85a2 9dbd
00000050: 6a7f adbe 8ce0 9cbe 8e15 c63d d3d9 6bbe
00000060: f5e7 a7bd 2d74 133e c6cc 473c 99f0 3b3e
00000070: 7565 e8bd c6a5 71bd 8cfd b53d 5e6b 5d3e
00000080: aaf5 1a3d a5a6 46be 5fb3 903d a49c 583e
00000090: dbcf cdbd 8ffb 453c c1a1 2f3c ac9a 7d3d
000000a0: f466 603d 5d49 0a3d b63c 62bd 7b98 dabd
000000b0: 7694 c1bc e67c 03be 2a84 893e 8041 723e
000000c0: 57bb 62bd 42ba 8cbe 9af7 c83c 921b f3bc
000000d0: ca36 043e 63ec 993d a2cf 293d d1a1 f13e
000000e0: 854c 2fbe 07a6 0f3d 4247 babe 9ff0 3cbe
000000f0: 97bc 90bd e2c6 2bbe d2c8 3d3d 47c9 08be
00000100: 866c 8d3e 171c f13d a3d7 99be 7ac6 8cbc
00000110: 1a2d 9a3e 56bb 883d d03b 39be 70b7 443e
00000120: f37c ff3c 7383 c2be e3cf 8f3b 89de 05be
00000130: d754 4fbe 9d64 ebbd 9791 93be e3a9 8fbe
00000140: 6a50 5c3c a1ce 8f3d 4230 1abe 613c 673e
00000150: 4058 9abe 51ab 643d b613 d73c cf22 623e
00000160: d5cc b4be e05c b83d 6564 71bc 7503 d23d
00000170: 5480 41bc 11c1 963d dddb d53c 9010 83bd
00000180: 26a6 4bbe aaed 16be 3e37 46be 53e8 c1be
00000190: 29b2 653d 6838 8a3e 6e36 bc3c 6f14 b33d
000001a0: bded 9f3e c775 40be 0712 fcbd a48b 583d
000001b0: 06c7 49be 70d2 193d 5936 933e aeb3 4fbb
000001c0: 5f2a aa3c 398d 1abe 106a e33d 94df fcbd
000001d0: ca9a 5b3e 4139 3f3b 6829 9d3e e54d 80bc
000001e0: 8cb4 743e eec5 533e 6a53 55be da3c 493e
000001f0: 0ea4 1bbe e46e 6bbe 565c 0d3e 15ab 483e
00000200: 62ce 263e 4925 073e 38dc a53e 1377 72bc
00000210: 8abb 55bd 0be0 a03e 77a2 b63c c53b 69be
00000220: a5f2 6cbe fe39 673d 6bb9 a03c cc83 293d
00000230: c68b 95bc 5daf d63d b5e1 03be 3130 853c
00000240: 1e17 48bc 4256 8dbd 116a e7bd f51a 5bbe
00000250: 9c5a cbbe a966 90be 6206 38be 2dd1 6ebe
00000260: aac9 4c3d b28d 203e dbac 173e 19ed 95bb
00000270: f3dd 423e b66c b43e e5fd 0ebe 53a1 cebc
00000280: 4629 383e c944 9b3e e34e e63e 3ca9 d13d
00000290: 3539 83be 4575 b53d 64b2 4cbd 7b1f de3d
000002a0: 76ec 14be 77b6 13be 2e84 8bbd 8c4f a8bd
000002b0: c5ac 583d cd3c 3d3e 4d9b a0bc 8cf6 94be
000002c0: e097 3e3e 3a78 b2be 6e38 4abe 1c71 763c
000002d0: f931 d53d ea52 cabc 6072 2a3e a4ca 2d3e
000002e0: 2562 47be 5f5e 0e3e c401 42bd 9b3c 61be
000002f0: 9d07 12bd 0721 dc3d 142a 1d3e cda1 c2bc
00000300: 98bd a93d 3ec4 7d3b a478 88bd 872d d6bc
00000310: 85d6 ea3d 4a11 b7be a2ac a93e b56a 413e
00000320: afb7 413e b53f 36bd 8be7 f8bd f161 9ebd
00000330: 6f59 583e b79a 363e e538 503e e45b 4dbd
00000340: 2d8f 3a3e 4dfa b23b 0ef1 2b3b 274d ed3d
00000350: b92c f9bd cf74 2dbe b72f b43c 5895 593d
00000360: 2c94 de3c b683 53bd 0ca0 4dbe eace bc3c
00000370: ed60 25be 2e14 803d 4c97 963e 8467 dc3d
00000380: 52b2 23be 7f11 ee3c f9b3 c0bc 04da 55be
00000390: e5c6 d43d 6b4f 513e 5ce2 45bc 1fed 87be
000003a0: 2390 d13d da1d 3cbe 9e28 4fbe f23b 9c3d
000003b0: 12cb 753d c267 3e3e e525 be3e 6204 433d
000003c0: 5d6b d9bc 79b2 37be 86bf 6c3d 3d50 bdbd
000003d0: d062 9dbc dee2 f6bd c06a 073e f492 993d
000003e0: a671 bc3d a6d7 153e fcd0 bcbd 8923 773e
000003f0: cb42 d0be 0f45 2f3d 2546 2a3e 33ac 04be
0.33742696 0.15968283 0.16579309 -0.096707895 0.13074939 0.17941386 0.28623673 -0.19042718
-0.038874328 -0.040570904 -0.12827674 0.21316135 0.030140512 0.119106896 -0.12232427 0.1295877
-0.11679824 0.022413973 0.051868256 -0.07697014 -0.33886272 -0.30640066 0.0967208 -0.23032312
-0.08198539 0.14399786 0.012194818 0.183535 -0.113474764 -0.058995984 0.08886251 0.21622989
0.03783194 -0.19399507 0.07065462 0.21153504 -0.10049411 0.012083902 0.0107197175 0.061915085
0.054785684 0.03376137 -0.05523368 -0.106736146 -0.023630362 -0.12840614 0.26858646 0.23657799
-0.055354442 -0.27485853 0.024532128 -0.029676232 0.12911525 0.0751579 0.04145778 0.4719377
-0.17119034 0.035070445 -0.3638249 -0.18451165 -0.07067221 -0.16775087 0.046334095 -0.13358031
0.2762186 0.11772936 -0.3004733 -0.017184485 0.30112535 0.066763565 -0.18089223 0.19210601
0.03118751 -0.37990913 0.0043887957 -0.13073172 -0.20247208 -0.114938 -0.28822014 -0.280593
0.013446907 0.07021833 -0.15057471 0.22581626 -0.30145454 0.055827443 0.026254516 0.22083591
-0.35312524 0.090020895 -0.014733409 0.102545656 -0.011810381 0.07361043 0.026105816 -0.063996434
-0.198876 -0.14739099 -0.1935701 -0.37872562 0.05607811 0.2699616 0.022975173 0.08744132
0.31236067 -0.18794928 -0.12308126 0.052867547 -0.19704828 0.037554204 0.287524 -0.003169279
0.020772157 -0.15092935 0.11104214 -0.12347332 0.21445766 0.0029178413 0.30695653 -0.015662143
0.23896998 0.20680973 -0.20832601 0.1965212 -0.151993 -0.2299152 0.13804755 0.19596513
0.16289666 0.13197817 0.32394576 -0.014798897 -0.052180804 0.3142093 0.022294266 -0.22776707
-0.23139437 0.05645179 0.019619664 0.041385457 -0.018255126 0.10482667 -0.12879069 0.016258331
-0.012212543 -0.06901218 -0.112995274 -0.21397002 -0.39717567 -0.28203323 -0.17971185 -0.23321982
0.04999701 0.15679052 0.14812033 -0.0045753834 0.1902998 0.3523919 -0.1396404 -0.02522341
0.17984495 0.30325916 0.4498206 0.10237357 -0.25629583 0.08860258 -0.049974814 0.10845848
-0.14543328 -0.14425074 -0.06812321 -0.08218297 0.05289914 0.18480225 -0.019605303 -0.2909435
0.18612623 -0.3485735 -0.19748089 0.015041616 0.10409922 -0.02469774 0.16645193 0.16971833
-0.19471033 0.13903187 -0.047364965 -0.21995775 -0.03565179 0.10748487 0.15348083 -0.023758793
0.08288115 0.0038721706 -0.066636354 -0.026144756 0.114666976 -0.35755378 0.3313952 0.18888362
0.18917726 -0.04449435 -0.12153538 -0.077335246 0.21127866 0.17832457 0.20334204 -0.05013646
0.1821868 0.005461967 0.002623621 0.11586981 -0.12166733 -0.1693909 0.021995408 0.05312094
0.027170263 -0.05163928 -0.20080584 0.023047883 -0.16150256 0.06253849 0.29412305 0.107619315
-0.15985993 0.029061077 -0.023523318 -0.20883948 0.103894986 0.20440452 -0.012077894 -0.26548097
0.1023257 -0.18370762 -0.20230338 0.07628621 0.060008116 0.18594268 0.37138286 0.0476116
-0.026540453 -0.17939176 0.05779984 -0.0924382 -0.019212157 -0.1205499 0.13224316 0.07498732
0.09201364 0.14633045 -0.09219548 0.2413465 -0.4067596 0.04279047 0.1662832 -0.12956314

rnn.bias_ih_l0 f4 [512]
00000000: aed6 483e 8459 b13e 1a55 893e f41e 703e
00000010: 76c9 7d3e d4d7 8a3e 4d6f 293e 323a 4b3e
00000020: 4e05 e23d 7f7b 593e 1d24 ac3d 5109 0f3e
00000030: 8ae6 9f3d 8ce5 8e3e 9873 4b3e ac38 863e
00000040: 64c1 8d3d fc8f f83d b5e1 133e 243f 153e
00000050: 8a20 f73d 7014 6c3e 603a 553e 76b2 8b3e
00000060: f866 3e3e a56f 523e 3f66 5c3e dd4a 043e
00000070: 3db3 9e3d f782 293e 38b0 cc3d 7521 8b3e
00000080: 603c b23d d252 763e cba1 6a3e 0434 1d3e
00000090: 9114 003e 1557 683e 309e c03d a62c 283e
000000a0: 7135 b73d f1fd 843e 9cd8 ff3d b52c 0f3e
000000b0: ba64 263e be91 883e 953e 5f3e 9027 4e3e
000000c0: 952f 2f3e 6577 273e 1e23 4b3e 29bc 803e
000000d0: bf86 493e 8b4b 023e f5ce 303e f884 f13d
000000e0: db21 093e 1120 433e b162 363e b499 0a3e
000000f0: 2fc4 843e ac40 f43d a0d8 d33d 3f6e 1a3e
00000100: 3115 233e b726 213e eef8 643e 289a 043e
00000110: 0f30 4e3e cf6f ea3d f19f 313e 798e 8a3e
00000120: d35c 1a3e 989d 323e 8f8f c03d 8c2b fe3d
00000130: 46ba 043e 96a4 d83d ee35 233e be62 2b3e
00000140: f595 833e 977d 423e 7299 053e fcf0 323e
00000150: 353e 383e a1a6 a23e 97b9 f43d 4cd2 4b3e
00000160: ae3c bb3d 6971 1e3e 2867 a63d d0c6 3b3d
00000170: d782 1c3e 953a 693e b7f1 3b3e d872 313e
00000180: 29fe 353e 816b 883e eb38 0c3e 15e9 583e
00000190: 3067 4a3e 91e7 353e 5011 3f3e c121 973e
000001a0: 0bb2 1e3e 5b17 843e 6a3b 5a3e ce47 833e
000001b0: d4d8 6c3e 1de0 0c3e c651 bc3d 7249 f73d
000001c0: 7b5a 153e 8110 3e3e c74b ab3e 35cb 313e
000001d0: a1a8 2f3e d820 1c3e cb12 923e bd65 4d3e
000001e0: 016d 0e3e 6dcc 5c3e 5b4a 5a3e c25b f53d
000001f0: b787 8b3e 5667 2e3e e202 2d3e ae79 753d
00000200: 28a7 463c 9466 cd3c 5c71 ea3c 0855 1b3c
00000210: 76d5 10be 298c 4cbd 634f 9a3d e398 04bd
00000220: 4514 463d f6dc a1bd 3245 e13d 0756 03be
00000230: 85af 2739 8884 8f3d c8ec 0ebd 09c6 043d
00000240: 84e8 2e3e ec89 bb3d 27fe 6d3d 6353 043e
00000250: 073a a7bd 932d 1cbd f8d0 97bc dc43 7fbc
00000260: f959 4b3d ba5e 453d 9e50 fb3d 3cc7 073d
00000270: a75b 883d b68f ab3c 6df5 a93d d34d 2dbd
00000280: a0bf b93d 04c0 373e 6f45 583c b632 4b3d
00000290: 7663 75bd 543c afbd 9bd5 9c3d c727 28bd
000002a0: ec04 073e b244 b9bc 1f31 4cbc 70ab 35bd
000002b0: 65b0 58bd c591 3f3d b05f 61bd 4bbc dc3c
000002c0: 53ff 153d 4b9e db3c bbc1 503c 0770 bf3a
000002d0: 4cd7 bdbd 5a43 ac3d 0e60 893d 4fce e33d
000002e0: 6500 303e 6514 a7bc 105e ecbb cfdd 943d
000002f0: 1c71 613d 0c05 223e cdb7 ecbc 7a97 90bd
00000300: 59b4 043e 5949 bf3d c534 b5bc 6136 b23d
00000310: 8a6f d0bc fa55 173e 75d0 303c 3045 9f3c
00000320: 3b89 bb3b 469e 3c3e 55a0 e43d 70cf 063e
00000330: b10a 6f3c 1a80 ac3d 66b9 553d 0622 593d
00000340: e876 8bbc 4442 78bc c2cc 243e 6172 bc3d
00000350: 4e06 8d3d c6b2 c5bc e5d1 b23d c0bd bbbd
00000360: 6868 c23d c1c4 f03d af59 383e bee9 273e
00000370: 5b90 f7bd f708 c5bd 5522 d23c 3a18 bc3d
00000380: c336 ce3d bbc5 b03c 01e3 253e d1d6 3d3d
00000390: e901 44bd 08c9 663d 9bf9 13bc 147e c43c
000003a0: 9463 253e 3c55 57bc 0c2b efbc 727b eb3d
000003b0: ff60 0cbd 783a da3d 0437 f73d 6d55 153d
000003c0: 5317 493d 1a41 85bc d45b 5abe 3df4 1cbc
000003d0: 5458 0b3e aefe 123e feac cb3c a9da 18bd
000003e0: 4715 253d cfec 883d 8f78 263e 04ed ac3d
000003f0: 05e6 c53d c489 5ebd b730 253d 0b86 343e
0.19613144 0.34638608 0.2682274 0.23449308 0.24783882 0.2711779 0.16546364 0.19846418
0.11036168 0.21238516 0.084053256 0.13968398 0.07807644 0.27909505 0.19868314 0.26215112
0.06921652 0.12136838 0.14441569 0.14574867 0.12066753 0.23054671 0.2082305 0.27284592
0.18593967 0.20550402 0.21523379 0.12919183 0.07749031 0.16553865 0.099945486 0.27173963
0.08702922 0.24055031 0.22913282 0.15351874 0.12507845 0.22689469 0.09405172 0.16423282
0.0894574 0.25974992 0.12492487 0.13981898 0.16249362 0.26673692 0.21801217 0.2013228
0.17107995 0.16354139 0.19837615 0.25143555 0.19680308 0.1272413 0.17266448 0.1179294
0.13391821 0.19055201 0.17811085 0.13535196 0.25930926 0.11926398 0.10344052 0.15081118
0.15926053 0.15737425 0.22360584 0.12949431 0.2013552 0.11447107 0.17346169 0.27061823
0.15074472 0.1744293 0.09402382 0.1241065 0.12961683 0.10578267 0.15938541 0.16736886
0.25700346 0.18993221 0.13046816 0.1747474 0.1799248 0.31767753 0.11949461 0.1990444
0.09142433 0.1547295 0.08125144 0.0458439 0.15284286 0.22776254 0.18353926 0.17328966
0.17772736 0.2664452 0.13693587 0.21182664 0.19765925 0.17764117 0.18658948 0.2951794
0.15497606 0.2579907 0.21311727 0.2564072 0.23129588 0.13757367 0.091952845 0.120745555
0.14585297 0.18560983 0.3345625 0.17362674 0.1715417 0.15246904 0.28529963 0.20058341
0.13908769 0.21562357 0.21317427 0.11980392 0.2725198 0.17031607 0.16895631 0.059930496
0.012124814 0.025073327 0.028618507 0.009480722 -0.14143929 -0.049938355 0.07534673 -0.032372367
0.048359174 -0.07903473 0.10999526 -0.12825786 0.00015991747 0.070077 -0.03489378 0.032415424
0.17080885 0.09157166 0.058103707 0.12922435 -0.08165365 -0.0381294 -0.018532261 -0.015580144
0.04964635 0.04818604 0.12271236 0.03314899 0.06658106 0.02094255 0.082987644 -0.042310547
0.09069753 0.17944342 0.013200148 0.04960891 -0.059909306 -0.085564286 0.076579295 -0.04105356
0.13185471 -0.022615764 -0.012462883 -0.04435295 -0.052902598 0.046769876 -0.055022895 0.026945254
0.03662045 0.026808878 0.012741501 0.001460553 -0.0926958 0.08411284 0.06707774 0.111233346
0.1718765 -0.020395467 -0.0072133616 0.07268869 0.05503951 0.15822238 -0.028896237 -0.07060142
0.12959422 0.09340162 -0.022119889 0.08701778 -0.025443811 0.14778891 0.0107918875 0.01944217
0.0057231463 0.18419752 0.111633934 0.13165069 0.014589951 0.08422871 0.052178763 0.053010963
-0.017024472 -0.015152518 0.16093734 0.092015035 0.06885968 -0.024133097 0.087314405 -0.09167051
0.0949257 0.11756278 0.18002962 0.1639776 -0.120880805 -0.096208505 0.025651136 0.09184308
0.10069039 0.02157866 0.16199876 0.046347443 -0.047853384 0.056344062 -0.009031679 0.0239859
0.16151267 -0.01314288 -0.029195331 0.11498155 -0.03427219 0.10655683 0.1207104 0.03645842
0.04909451 -0.016266394 -0.21324092 -0.009579715 0.13607913 0.14354965 0.024862763 -0.037317906
0.040303495 0.06685793 0.16256927 0.08443645 0.09663013 -0.054330602 0.04032966 0.17629258

rnn.bias_hh_l0 f4 [512]
00000000: 8207 603e 6fa0 663e 509b 053e 7324 0c3e
00000010: e458 3d3e 2f77 813e e019 043e 71b8 883e
00000020: 407e b43d 5f91 7d3e e2ce 163e 356a 183e
00000030: 6d18 393e 6068 463e 7bbc 553e af74 0b3e
00000040: 2ca6 e83d 21cd 0d3e 197b 213e c237 443e
00000050: 1936 063e 4fb0 903e 1a12 823e 1d62 7d3e
00000060: 801f fd3d d95b d63d 6805 213e d41a 223e
00000070: 9d9d db3d 9018 d73d 2784 313e 2593 3e3e
00000080: ce39 523e 8194 543e b0fe 853e 108e e53d
00000090: 8c3c 183e af2e 613e 2da7 9d3d d8a2 643e
000000a0: 4f09 373e 789e 373e dd2c 593e 0ed0 883e
000000b0: bf84 863e ac99 3c3e 0ffe 773e ec72 713e
000000c0: 67c7 343e 13c0 633e f06d 153e 914f 783e
000000d0: 2550 7a3e 17cc 3e3e 27e5 533e 9cb3 503e
000000e0: faee ff3d 3e5d 7d3e 3288 813e ea64 2c3e
000000f0: ae51 453e ac95 713e 386e 3d3e c3eb 8f3d
00000100: cfbf 163e a23b 3e3e aa51 113e a35b 893e
00000110: 340f 143e ef00 5e3d 482c b13d 8503 753e
00000120: f11a 373e 3df6 eb3d f1d1 b33d c38d 2b3e
00000130: 6d98 503e 17d1 4b3e 1e0f 113e cc57 3b3e
00000140: e46f 2d3e c543 373e ce94 1e3e 29cb 7d3d
00000150: ce0e 723e 8f8b 963e 3328 853e 4439 7d3e
00000160: 368c b63d dbfb 093e 672b 573e b99b 003e
00000170: 5018 843e 6987 103e c7b8 0a3e 7382 0a3e
00000180: 0b6a 563e b357 8b3e d6cd 113e f2e2 8a3e
00000190: 0bc7 5c3e 5774 813e 42fc 3e3e 528b 813e
000001a0: 5931 383d 1368 2b3e e216 803e 902b 803e
000001b0: 4ea6 373e d768 4d3e e28d 7b3e c741 d53d
000001c0: ef45 263e 634d 2a3e 7e48 a93e 8658 8b3e
000001d0: e145 253e 11d2 5f3e 0ece 0d3e ec56 873e
000001e0: 1836 4a3e 118b 5b3e 9d77 7b3e e68e 123e
000001f0: 8bb8 673e a9f1 063e 5500 3d3e 4975 623e
00000200: 76e8 9b3d 70b3 e5bd 44d2 de3b 02fc 4b3c
00000210: 9d47 0abe dcad d93d 034c 27bd 7844 93bd
00000220: 94ec 1f3e 1147 b5bb 84f8 ce3d 4d0d 3abc
00000230: e9a5 053e 23ec a73b 691c 05bc cdcb 62bd
00000240: 5618 fb3d 711b d5bc fdc6 9f3d 8c95 c73d
00000250: 558f b3bb 19bf edbd 04e4 aabc 7c17 213d
00000260: 240b 323e f299 df3d 58d7 ec3d 13c3 fd3b
00000270: cb0e c23c bd69 b53d c2ce 5e3d 2307 d0bd
00000280: 58da ab3d bea2 be3d ce0a f43c 41cd 86bb
00000290: 9fa2 f93c f881 a1bd 00b8 bc3d 8c43 b8bd
000002a0: c688 313d b4a5 7b3b 0114 64bc dbf5 8abd
000002b0: 35c4 3ebd a30b 2f3d cec9 38bd ad8c ee3c
000002c0: 6cf6 983d 77fe 913d e5ab ccbb f701 473d
000002d0: 5ec6 bdbd 129c a33d c5ab 8d3a 1f24 993d
000002e0: 59eb f93d 3216 6c3d 1af7 3c3d ac80 783c
000002f0: 2762 b03b 61ae d53d 7589 993d a79e 9fbc
00000300: fe4e 893c 88e9 773d cff9 c6ba 63e5 83bd
00000310: 5844 80bd 65d0 233e c85a 103e 4fa8 1bbe
00000320: b18e 0abd 9163 143e bed4 1a3c 0457 733d
00000330: 1477 8e3d 5c87 9f3d fe5e 923d bcb8 24bd
00000340: 285e bf3c 9314 033d 3052 fd3d 9e40 7c3d
00000350: 0a34 e73d edff 3e3d 4807 233d 4540 a5bd
00000360: e252 eb3d af0c 2a3e 5926 153e 7826 443e
00000370: dfad a3bd f511 eebc d30a 8bbd 755f 083e
00000380: f966 533e d773 bc3a cd59 013e 6459 9c3d
00000390: 67b5 aa3d bd4b d63d 4968 2abd e624 183e
000003a0: c6bb 003e fddd 1e3d 1ac8 d4bd 8423 9f3d
000003b0: 3f26 d33d 9aa8 d43d 741b 4abc 5635 113e
000003c0: 5432 bc3d 838f c53d 1131 45be 11e5 9ebd
000003d0: 0c07 a23d 2d80 8d3d e94b a1bd cf43 343c
000003e0: b4cd c1bd 8348 c73d d449 0f3e 3de1 94bb
000003f0: 177f bb3d c71c d83d 15e3 5fbd 26c4 123e
0.21877864 0.22522138 0.13047528 0.1368578 0.1849094 0.25286242 0.12900496 0.26703218
0.08813143 0.24762486 0.14727357 0.14884265 0.18075724 0.19375753 0.20872681 0.1361873
0.1135982 0.13847782 0.15769614 0.19161895 0.13106574 0.28259513 0.25404435 0.24744458
0.12359524 0.10466737 0.15724719 0.15830547 0.10723422 0.10502732 0.17335568 0.18610819
0.20529863 0.20759775 0.26170874 0.11208737 0.14866847 0.21990465 0.07697902 0.22327745
0.17874645 0.17931545 0.2120852 0.26721233 0.26273152 0.18417996 0.2421801 0.23578995
0.17654191 0.22241239 0.14592719 0.24249102 0.24444635 0.18632542 0.20692883 0.20381016
0.12496753 0.247426 0.2529922 0.1683537 0.1926944 0.23592252 0.18499076 0.0702739
0.14721607 0.18577436 0.14191309 0.26827726 0.14458925 0.05420011 0.08651024 0.23927124
0.17881371 0.115215756 0.087802775 0.16753297 0.20370646 0.1990398 0.14165923 0.1829521
0.16937214 0.17896946 0.15486452 0.061961327 0.2363846 0.2940335 0.26007232 0.24728876
0.08913462 0.13474981 0.2101265 0.12559403 0.257998 0.14114155 0.1354705 0.13526325
0.2093889 0.27215347 0.14238676 0.2712627 0.21560304 0.25284073 0.18650916 0.25301605
0.044968937 0.1673892 0.25017458 0.25033236 0.17934534 0.20059524 0.24565843 0.10412937
0.16237615 0.16631083 0.3306312 0.27215976 0.16139938 0.21857478 0.13848135 0.26433504
0.19747198 0.21439768 0.24557348 0.14312324 0.22628991 0.13178124 0.18457158 0.22115053
0.07612698 -0.112158656 0.006799968 0.01245022 -0.13503881 0.10628864 -0.040843975 -0.07190794
0.15617591 -0.0055321534 0.10105994 -0.01135571 0.13051571 0.0051245852 -0.008124449 -0.05537014
0.12260501 -0.026014062 0.07801626 0.09745321 -0.005479733 -0.116087146 -0.02086068 0.039329037
0.17387062 0.109180346 0.11564511 0.007744202 0.023688694 0.088580586 0.0543964 -0.10157611
0.08391255 0.09308384 0.029790308 -0.0041138236 0.030473052 -0.07886118 0.09214783 -0.089972585
0.043343328 0.0038398327 -0.013920785 -0.067851745 -0.046573836 0.042735707 -0.04511433 0.029119814
0.07468876 0.071286134 -0.0062460774 0.04858586 -0.09266351 0.079887524 0.0010808638 0.07477593
0.12203092 0.057638355 0.046134092 0.0151673965 0.0053827944 0.10433651 0.07496921 -0.019484831
0.0167613 0.060525447 -0.001518065 -0.064402364 -0.062630355 0.15997465 0.1409713 -0.15200923
-0.033827487 0.14491107 0.009450136 0.059409156 0.06956306 0.077894896 0.071470246 -0.04021524
0.023360327 0.032002043 0.12369192 0.06158506 0.112892225 0.04663079 0.039801866 -0.08068899
0.11490418 0.16606401 0.1456541 0.191553 -0.07992148 -0.029061297 -0.06789174 0.13317664
0.2064475 0.0014377785 0.12631913 0.076342374 0.08335381 0.10463665 -0.04160336 0.14857826
0.1257163 0.038785923 -0.10389729 0.07770446 0.10310029 0.10383721 -0.012335647 0.14180502
0.09189287 0.09646513 -0.19256999 -0.07758535 0.079115 0.06909213 -0.07875807 0.011002495
-0.09463063 0.097306274 0.13993007 -0.004543452 0.091551 0.10552364 -0.05465992 0.14332637

fc.weight f4 [10, 128]
00000000: 3c36 733e 9ec7 183f a742 5f3e 6a41 7bbd
00000010: f523 3abf 34c0 b1be c5e1 623f 73bc 383f
00000020: c4b9 e83e ea16 683f 98c1 6dbd 60af eebe
00000030: d57f d3be 65c5 39bf e411 5c3f a09e e7be
00000040: 3686 cd3e 8aa4 43bf b68f 733e 8972 053f
00000050: ff54 86bf 284d 5e3f 643c 4abf 34e0 7abe
00000060: 505b c4be c634 4b3f dd58 c5be 1986 32bf
00000070: 00c3 2e3f d944 253f b502 d23e 8e2a 26bf
00000080: 7fea dcbe 7fc3 15bf 9107 1c3f d7fc 343f
00000090: 42ee 22be 7c90 953e 7f75 cb3e 1628 103f
000000a0: f975 33bf f48e 5e3f 06fc d03c 4c11 4e3f
000000b0: bb75 3e3f fe44 47bf 2cb6 483e d44d 73bf
000000c0: e6f9 d73e cc0d ef3e 76af d8be 9a0b aebe
000000d0: b749 16bf a423 1dbf 7323 0b3f 4541 4b3f
000000e0: bb29 8fbe 301e 4e3f 9b4a 42bf f35a 2f3e
000000f0: 6e7f edbe 9504 5e3f 0173 e5be 16d7 f3be
00000100: 3f6c 213f 2a3c 62bf 4c64 2ebf 460a 12bd
00000110: 3dae cf3e f1e3 123f 2bb3 47bf 5f5e 20bf
00000120: dbc4 623f 0ece 49bf 5d62 d9be 2434 1f3e
00000130: bb53 4a3f 52ed cabe d91d 57bf fe0b 303f
00000140: fb17 23bf 1cf9 38bf 1072 c03e 6362 713f
00000150: 930f edbd 6e50 d43e 2014 08bf dd48 123f
00000160: d7f7 ebbe d7d6 483f 7c65 ea3e 91bc 35bf
00000170: 6f3e 8abf c171 89bf aacd 44bd 280f c1be
00000180: 7655 303f 2df2 303f d53c 593f 1f74 6ebf
00000190: 438e 02bf dc8f b7be 87a4 89bf 3da7 fe3e
000001a0: 07c8 1d3f e245 21bf 2858 01bf 8d27 543f
000001b0: 8cb1 c53e d3f4 b23e 3ef5 113f 28d1 263f
000001c0: 0dd1 df3d 2236 36be 2529 763f 8263 c4be
000001d0: 081e 3f3f 6e9a d23e 8417 47bf c416 723e
000001e0: 22c0 bf3e aade 363f 0f7d c93e 0cd0 f2be
000001f0: d89e 6c3f 4855 143f 8f1e 9abe 1ddf b4be
00000200: ed2a 003f bf1e 8a3f c52e 1ebf cfb7 f6be
00000210: 6d93 37bf c162 97bd ee86 b3be 8d27 1ebf
00000220: 0126 06be 6118 5f3f a2aa 75be a69d dd3e
00000230: ecd1 133f a8b2 2d3f 8676 0abf 9dca 2bbf
00000240: 116f 0ebf 2605 4a3f 67e4 25bf 752e 49bf
00000250: 3695 2ebf cef7 11bf eafe 8cbe 82b8 bb3d
00000260: d1a3 be3e 1674 efbe f8ba c43e c486 96be
00000270: ed41 063f edfe e7bd d910 cbbe 8c02 1ebf
00000280: 5843 253f 89c5 5e3f 5dde 2ebf 231f 62be
00000290: c9ea 07be d503 933d 2b08 bfbe 9e7c cbbe
000002a0: 5b59 0dbe 1a22 7fbf 7a80 3c3f 1dde 3e3f
000002b0: b3a2 823f 9f1f 0f3f b4fd 673f d3c0 ad3e
000002c0: ad05 1dbf fdcf 87bf eada 1e3f 9877 4dbf
000002d0: 25ac 02bf 1105 1b3c d264 303e 09c2 55bf
000002e0: 1936 493c 90d9 623f 6ed9 c4be 5225 2ebe
000002f0: ffbc 4dbf 1070 adbe 9cf1 c93e d87e 9d3e
00000300: e1a0 a6be 5ab9 4abf 8c78 eabe 2118 21bf
00000310: 6fb1 64bf e610 493f d998 ed3e 84e4 1e3f
00000320: daea 46bf a9bd 27bf 6bbb bf3e 39b5 fdbe
00000330: 0af4 2bbf 17fc 53be dbdc 193e 3913 48bf
00000340: 3141 143f 15d0 443f 6036 ebbe b69a 343f
00000350: 429a 523f 68b8 85bf 70eb c3be ac04 9bbe
00000360: 7e5b 42bf 67c0 423f 9930 f6be d7ff 893e
00000370: 2e5f 023f 3b09 53bf d464 e6bd db69 b33e
00000380: 217b 11bf 22ef 4fbf 2e0d 00bf 32a7 7a3f
00000390: dfcd 183f 6f02 25bf 783a 55bf ee3e 5fbf
000003a0: 44cd 27bf 9683 783d c593 ab3e 48b5 4cbf
000003b0: 664c c33d 4207 7cbf 27b0 123f a17b 493f
000003c0: a9f3 20bf 952b 4a3e 9383 4e3f 0793 78bf
000003d0: e858 a7be 5818 7cbe 006f 7b3d e78e 7bbf
000003e0: 022e cabe 7876 8a3f 9e7e ae3d 3cff dbbe
000003f0: cb53 51bf ef99 103f baca 4e3f ea38 043f
0.23751158 0.5967959 0.2180277 -0.06134168 -0.72711116 -0.34716952 0.88625747 0.7216255
0.45454228 0.90659964 -0.058045954 -0.46618176 -0.41308466 -0.72566825 0.859648 -0.4523821
0.40141457 -0.7642294 0.2378529 0.5212789 -1.0494689 0.8683648 -0.789984 -0.24499589
-0.38350916 0.793774 -0.3854436 -0.69735867 0.68266296 0.6455818 0.4101769 -0.64908683
-0.43147656 -0.5850143 0.60949045 0.70698303 -0.159112 0.29211795 0.3973808 0.56311166
-0.70101887 0.8693688 0.0255108 0.8049514 0.7439839 -0.7783965 0.19600743 -0.9504063
0.42182845 0.46690214 -0.42321366 -0.33993226 -0.5870623 -0.6138251 0.54350966 0.7939647
-0.27961525 0.8051481 -0.7589509 0.17124538 -0.46386284 0.8672574 -0.44814304 -0.47625035
0.63055795 -0.88373053 -0.6812179 -0.03565433 0.4056262 0.5737906 -0.78007764 -0.62644
0.8858163 -0.7883004 -0.42457858 0.15547234 0.7903401 -0.39634186 -0.8402992 0.687683
-0.63708466 -0.7225511 0.37587023 0.9429075 -0.11575236 0.41467613 -0.5315571 0.5714243
-0.46087524 0.7845282 0.4578055 -0.70990855 -1.0800303 -1.073784 -0.0480477 -0.37706876
0.68880403 0.6911953 0.8485845 -0.93145937 -0.50998324 -0.35851943 -1.0753335 0.49736968
0.6163334 -0.6299726 -0.5052514 0.8287285 0.3861202 0.3495241 0.57014835 0.651629
0.10928545 -0.17794088 0.9615653 -0.38357168 0.746552 0.41133446 -0.77770257 0.23641497
0.37451273 0.7143351 0.39353225 -0.47424352 0.92429876 0.5794263 -0.3010144 -0.35326472
0.500655 1.0790633 -0.61790115 -0.4818711 -0.7170933 -0.07391883 -0.3506388 -0.617791
-0.13100435 0.87146574 -0.23990873 0.4328434 0.5774219 0.6785073 -0.540871 -0.6710604
-0.55638224 0.78914106 -0.6480164 -0.7858651 -0.6819643 -0.57018745 -0.27538234 0.091660514
0.37234357 -0.46768254 0.38423896 -0.29399693 0.52444345 -0.1132792 -0.3966129 -0.61722636
0.64555883 0.87020165 -0.6830805 -0.2208219 -0.13273157 0.07178465 -0.3731092 -0.39743513
-0.13803618 -0.9966141 0.7363354 0.7455767 1.0205902 0.55907625 0.90621495 0.33936176
-0.61336786 -1.0610348 0.62052786 -0.8026061 -0.5104392 0.009461657 0.1722596 -0.834992
0.012280964 0.88613224 -0.38447136 -0.17006424 -0.8036651 -0.3387456 0.39442146 0.30760837
-0.32544616 -0.79189074 -0.45795095 -0.6292744 -0.8933324 0.7854141 0.46405676 0.6206744
-0.77702105 -0.65523773 0.37447676 -0.49552324 -0.6716925 -0.20701633 0.15025656 -0.7815433
0.57911974 0.7688001 -0.45939922 0.7054857 0.8226663 -1.0446901 -0.38265562 -0.30277002
-0.75920856 0.7607483 -0.48083952 0.26953003 0.5092648 -0.8243596 -0.112497 0.350417
-0.56828505 -0.8122426 -0.5002011 0.9791137 0.59689134 -0.6445684 -0.8329234 -0.872054
-0.65547585 0.060672365 0.33511177 -0.79964113 0.09536056 -0.98448575 0.5730004 0.7870427
-0.62871796 0.19743188 0.80669516 -0.97099346 -0.32685018 -0.24618661 0.061385155 -0.98264927
-0.39488226 1.0817404 0.08520244 -0.42968166 -0.8176848 0.56484884 0.80778086 0.51649344

fc.bias f4 [10]
00000000: 81ec 1cbe 7f9d ccbd d0ae 28be 2abc 33be
00000010: da23 e1bd 0f75 a4be bd65 1dbe 0017 8dbe
00000020: e3d8 b23d 0942 14be
-0.15324594 -0.099909775 -0.16472936 -0.17552248 -0.10993166 -0.3212056 -0.15370841 -0.2755661
0.08732774 -0.14478315
