module_5/gener_gru.pth (torch, 409434 bytes, 7 tensors)

embedding.weight f4 [10, 128]
0	0x3f787101	0.9704743
1	0xc006aa13	-2.1041305
2	0x3ffddefe	1.9833677
3	0xbedf009d	-0.43555155
4	0x3fc097db	1.5046343
5	0xbf93fdfd	-1.1561886
6	0x3e666db0	0.2250278
7	0xbe0af706	-0.13570794
8	0xbfd869dd	-1.6907307
9	0x3f742b0b	0.9537818
10	0xbf015c9a	-0.50531924
11	0xbe38289c	-0.17984241
12	0xbfe5ce60	-1.7953606
13	0x3fafd98f	1.3738269
14	0x3f9c6971	1.2219678
15	0xbe48ff8b	-0.19628732
16	0x3fbeacc4	1.4896474
17	0xbe04744c	-0.12934989
18	0x3e3b6e5c	0.18303818
19	0x3f996c89	1.1986247
20	0x3fb48ef3	1.4106125
21	0x3e6afa84	0.22947127
22	0x3e8ba8f2	0.27277333
23	0xbffdec93	-1.9837822
24	0xbfc1097f	-1.5081023
25	0xbfa05ae1	-1.2527734
26	0x3f875e6d	1.0575691
27	0x3df8cecf	0.121488206
28	0xbf65df9f	-0.89794344
29	0x3edf6be9	0.43637016
30	0x3e6d9c2c	0.23204106
31	0xbfa2725b	-1.2691149
32	0x3e9fba7f	0.31196973
33	0xc002673e	-2.0375514
34	0x3fd0e9cb	1.6321348
35	0xc0199203	-2.3995368
36	0xbf8474df	-1.0348166
37	0xbeb45d0f	-0.35227248
38	0x3ef8181b	0.4845589
39	0xbf254b34	-0.64567876
40	0x3e3f4136	0.1867722
41	0x3eaf3ad5	0.34224573
42	0xc0052d6c	-2.0808973
43	0xbeaa9358	-0.3331554
44	0xbf213443	-0.6297037
45	0xbfdad7a9	-1.7097064
46	0xbf8ab5c1	-1.0836717
47	0xbddf9ae3	-0.10918214
48	0x3f2abafd	0.6669157
49	0x3f77ad0c	0.96748424
50	0x3eba454e	0.36381
51	0x3f714dae	0.94259155
52	0x3f860235	1.0469424
53	0x3e468594	0.19386894
54	0xbf2f5acf	-0.6849794
55	0x4003615f	2.052818
56	0x3ed75cd3	0.42063007
57	0x3fbe6f1d	1.4877659
58	0x3f155a32	0.5834075
59	0x3de0ca4e	0.109760866
60	0x3e2db130	0.16962123
61	0x3f34edfb	0.7067563
62	0x3de28a2f	0.11061513
63	0x3f340748	0.7032361
64	0x3f95e407	1.1710213
65	0x3f9e93b0	1.2388821
66	0x3e10059b	0.14064638
67	0xbeed4d55	-0.46348062
68	0xbe47db81	-0.19517328
69	0x3f7285f1	0.9473563
70	0xc04cb5a1	-3.1985857
71	0x3b028294	0.0019914256
72	0x3f62b8d7	0.88563293
73	0xbf8a761c	-1.0817294
74	0xc00a3681	-2.1595767
75	0xbd943269	-0.072361775
76	0x3f3a820c	0.72854686
77	0x3f1ea35d	0.6196802
78	0xbfc71c68	-1.5555544
79	0xbf886e8f	-1.065874
80	0x3f837359	1.0269576
81	0xbfcd79eb	-1.6052831
82	0xbfce8f70	-1.6137524
83	0x3fc9a998	1.5754881
84	0x3e9ae0cc	0.3024963
85	0xbfcdcb76	-1.6077716
86	0x3f150eb4	0.5822556
87	0x3f9f3864	1.2439084
88	0xbd402638	-0.04691145
89	0xbdd40b61	-0.10353733
90	0xbf19ff2c	-0.60154986
91	0xbf0714f7	-0.52766365
92	0x401a28e9	2.408747
93	0xbe311960	-0.17294836
94	0x3e823f0a	0.2543872
95	0xbfb30912	-1.3987143
96	0xbefce67b	-0.49394593
97	0xbf39139c	-0.72295547
98	0xbfa00465	-1.2501341
99	0xbde10740	-0.10987711
100	0x3fd12351	1.6338903
101	0x4029881e	2.648933
102	0x3f4c65bd	0.7984274
103	0x4004cf45	2.0751507
104	0xbe0bcc47	-0.13652144
105	0x3f8d6917	1.1047696
106	0x3ea0b231	0.3138595
107	0xbff0f4d6	-1.8824718
108	0x3ea934ad	0.33048
109	0x3e49e096	0.19714579
110	0xc0042c40	-2.0652008
111	0x3fd10a05	1.6331183
112	0x3e958c53	0.2920862
113	0xbdfca734	-0.12336579
114	0xbe7fa265	-0.24964292
115	0x3f983665	1.18916
116	0x3ef9b6a7	0.48772165
117	0xc0332a80	-2.799469
118	0x3ec57530	0.3856597
119	0xbe5c43a7	-0.21510182
120	0x3f3eac2c	0.74481463
121	0x3e238474	0.15968496
122	0x3f314b3e	0.69255435
123	0xbfaaf086	-1.3354652
124	0xbf175d2f	-0.5912656
125	0x3e85fbdf	0.26168725
126	0xbe94c9f0	-0.29060316
127	0xbf85f071	-1.0464002
128	0x3f65a584	0.8970568
129	0x3f2749ac	0.6534679
130	0x3ddd0653	0.10792222
131	0x3eb10190	0.34571505
132	0xbfa3af8c	-1.2787948
133	0xbda9d8a6	-0.082932755
134	0xbea4fcea	-0.32224208
135	0xbf956a46	-1.1673057
136	0xbfef9625	-1.8717695
137	0x3eb10075	0.3457066
138	0x3ed8c869	0.423404
139	0xbf891145	-1.0708395
140	0x3f0243f1	0.5088492
141	0x3f867cc1	1.0506822
142	0xbfa161ef	-1.2608012
143	0x3f251f54	0.6450093
144	0xbe404248	-0.18775284
145	0xbf6a27c5	-0.91466933
146	0xbeed265c	-0.46318328
147	0x3f0df1e2	0.5544721
148	0x3e3813ff	0.17976378
149	0xbd49c6ea	-0.049261965
150	0x3e834055	0.2563502
151	0x3e4e487d	0.2014484
152	0xbf37d727	-0.7181267
153	0xbfb49c3e	-1.4110181
154	0x3f38e39a	0.7222229
155	0x3fd06bb7	1.6282872
156	0x3fa4831e	1.2852514
157	0x3ff1725b	1.8863024
158	0xbf33236a	-0.6997591
159	0xbfde996d	-1.7390572
160	0x4004f004	2.0771494
161	0xc02bf23c	-2.6866598
162	0x3f84f6d9	1.0387832
163	0x3f179008	0.5920415
164	0xbf1df2ef	-0.6169881
165	0xbfef4e1a	-1.869571
166	0x3fac21aa	1.3447773
167	0x3f411739	0.7542606
168	0x3fc403f5	1.5313708
169	0xbecf8f2c	-0.4053892
170	0x3fc86621	1.5656167
171	0x3fb9c47f	1.4513091
172	0x3d002e05	0.031293888
173	0xbfc348bf	-1.5256575
174	0xbfb1f8da	-1.3904068
175	0x40437b04	3.0543833
176	0xbdf74f7c	-0.12075707
177	0xbf959b75	-1.1688067
178	0xbf951301	-1.1646425
179	0xbf7ea3a1	-0.9946843
180	0x4011b0cb	2.2764156
181	0x401611c3	2.344834
182	0xbe5f8918	-0.21829641
183	0x40310ad6	2.7662864
184	0xbd8e4895	-0.06947438
185	0xbea1db7a	-0.3161276
186	0xbf81d50c	-1.0143142
187	0xc0052da1	-2.08091
188	0x3df5680d	0.11982737
189	0xbf58d9a0	-0.8470707
190	0x3f199cb2	0.60004723
191	0x3f6b88a2	0.9200536
192	0x4004126c	2.0636244
193	0x3f180270	0.5937872
194	0x3f407512	0.75178635
195	0x3f8bd1e0	1.0923424
196	0x3f4b4ab0	0.7941084
197	0xbf260a64	-0.64859605
198	0x3fbd0172	1.4766066
199	0x3f5661ad	0.8374279
200	0x3fae498b	1.3616194
201	0xbf78ef3c	-0.9724004
202	0xbe77f7e2	-0.24215654
203	0xbf2bfbc1	-0.6718102
204	0x3fb33ceb	1.4002966
205	0xbd9d866d	-0.07691655
206	0x3f13fa0f	0.57803434
207	0xbe23bd7a	-0.15990248
208	0x3f71ebc5	0.9450038
209	0x3faad6bb	1.334678
210	0x3d1fb500	0.038990974
211	0xc00679f6	-2.101194
212	0xc003f049	-2.0615408
213	0xbf46009d	-0.77344686
214	0x3f01a695	0.5064481
215	0xbe62b1a7	-0.22138081
216	0x3ea1df01	0.3161545
217	0x3f48a9e6	0.78384244
218	0xbf12d6ff	-0.5735931
219	0x3f823735	1.0173098
220	0x403e5918	2.9741879
221	0x3fcbf37a	1.5933678
222	0x3f830931	1.023718
223	0x4014151d	2.3137887
224	0xbe895546	-0.2682287
225	0x3f3dd4c6	0.7415279
226	0xbf972dec	-1.1810889
227	0x3f55d3a5	0.8352607
228	0xbe62738c	-0.2211439
229	0x3cb8e3cc	0.02256956
230	0x3f9c97d1	1.2233831
231	0xc00805df	-2.1253583
232	0x3e5725ec	0.2101056
233	0xbf73842c	-0.95123553
234	0xbd35f723	-0.04442514
235	0xbf114be5	-0.5675643
236	0xbfaf9c7b	-1.3719629
237	0xbfa908cf	-1.3205813
238	0xbf7bda95	-0.98380405
239	0x3f125640	0.5716286
240	0xc0072551	-2.1116526
241	0x3fb3fc58	1.4061384
242	0xbe988f1e	-0.2979669
243	0x3febf578	1.8434286
244	0x3dcf642a	0.10126527
245	0x3d533c0c	0.051570937
246	0x3fb68f3f	1.4262465
247	0xbf53e3da	-0.8276955
248	0x3fdcd4b5	1.7252413
249	0xbf5ff08a	-0.8747641
250	0x3fd2fcd4	1.6483407
251	0x3e86fa2a	0.26362735
252	0x3f80f210	1.0073872
253	0xbbe48531	-0.0069738855
254	0xbfa18f1a	-1.2621796
255	0x4063df97	3.5605218

rnn.weight_ih_l0 f4 [384, 128]
0	0x3d869ff3	0.06573477
1	0x3d3728a9	0.04471651
2	0x3b24ac20	0.0025127009
3	0xbe834b55	-0.2564341
4	0x3dc74b87	0.097312026
5	0x3c9835ad	0.018580282
6	0xbda6b311	-0.08139623
7	0x3e345c65	0.1761337
8	0xbc89c2ea	-0.016816575
9	0xbd82d54e	-0.06388341
10	0x3e34c9b8	0.17655075
11	0x3e74bdc3	0.23900513
12	0x3e3a0a90	0.18168092
13	0x3c1b5142	0.009479823
14	0x3d8852ac	0.066563934
15	0xbca22809	-0.01979448
16	0xbe26ba86	-0.1628209
17	0x3e9cf056	0.30652112
18	0x3d1ea352	0.038729973
19	0x3b7b3174	0.0038329037
20	0xbe28fe6e	-0.16503307
21	0x3c8e9e2e	0.01740941
22	0xbec1c4e4	-0.37845528
23	0xbd617349	-0.055041585
24	0x3da09f29	0.078428574
25	0x3e383fc9	0.17993082
26	0x3cfb8b01	0.03070593
27	0x3e314820	0.1731267
28	0xbe710f0e	-0.23540899
29	0xbe05face	-0.13083956
30	0xbd874508	-0.066049635
31	0x3d37d4c1	0.044880632
32	0x3c3c2ad9	0.011484825
33	0xbb0f1570	-0.0021832846
34	0xbe5ad806	-0.21371469
35	0xbd2a3120	-0.041550756
36	0x3e7ea401	0.2486725
37	0xbc8082df	-0.015687404
38	0xbd15c2e0	-0.0365628
39	0xbeb5d659	-0.35515097
40	0x3e657973	0.2240961
41	0xbd550b6f	-0.052012857
42	0x3dbca230	0.09210622
43	0xbd94f708	-0.0727368
44	0x3e5fb3da	0.21845952
45	0x3ea41f69	0.32055214
46	0xbd00f3cb	-0.0314825
47	0xbe06abfb	-0.13151543
48	0xbe2ec5e3	-0.17067675
49	0x3e65ad3c	0.22429365
50	0xbd9f9213	-0.07791533
51	0x3d4699a7	0.048486378
52	0xbe00ca66	-0.12577209
53	0xbe340773	-0.17580967
54	0x3b08ae94	0.002085601
55	0x3d4075cb	0.046987336
56	0x3e0b807b	0.1362323
57	0x3e1924de	0.1495547
58	0x3e1f01b2	0.1552799
59	0xbdcc2ad8	-0.09969109
60	0xbc64d33f	-0.013966381
61	0xbb5ce123	-0.0033703528
62	0xbe7500f8	-0.23926151
63	0xbe86f308	-0.26357293
64	0xbd48ae88	-0.04899457
65	0x3e468b5c	0.19389099
66	0xbe047136	-0.12933812
67	0x3e692c73	0.22770862
68	0x3e1f777d	0.15572925
69	0xbda716a1	-0.08158613
70	0xbd4a5445	-0.049396772
71	0x3e29adcb	0.16570203
72	0xbbe3f4b6	-0.006956662
73	0xbe57d4e3	-0.21077304
74	0x3dca4154	0.098757416
75	0x3e7936fe	0.24337384
76	0xbdf4f120	-0.119600534
77	0x3d94119f	0.072299235
78	0xbe07a3cd	-0.13246079
79	0x3db8df17	0.09026926
80	0xbc76d7f0	-0.015066132
81	0xbcb5d097	-0.02219419
82	0x3d5047d9	0.05084977
83	0xbc1fe13a	-0.009758288
84	0x3da46089	0.08026225
85	0x3dcd8aed	0.100362636
86	0xbe461a68	-0.1934601
87	0x3e14f5f7	0.14546953
88	0x3e541124	0.20709664
89	0x3cd18d26	0.02558
90	0x3e856440	0.26053047
91	0xbe6c6b76	-0.23087868
92	0x3d869fce	0.06573449
93	0xbe33e05d	-0.17566057
94	0xbdf5efeb	-0.12008651
95	0xbe3c88a9	-0.18411507
96	0x3b009761	0.001962148
97	0x3e0e7c6b	0.13914649
98	0x3e487743	0.19576745
99	0xbe292e7f	-0.16521643
100	0x3d274673	0.04083867
101	0x3d91dcb0	0.07122171
102	0xbd923c4d	-0.07140408
103	0xbdf62151	-0.12018073
104	0xbe566985	-0.2093869
105	0xbd7740a9	-0.0603644
106	0xbe9b2e69	-0.30308846
107	0xbe1fd7eb	-0.1560971
108	0xbe7c7dc6	-0.24657354
109	0x3d0c2d49	0.034222875
110	0x3e4c9abc	0.19980901
111	0xbcf44644	-0.029818662
112	0x3e1d1208	0.1533891
113	0x3bad4b0d	0.0052884878
114	0xbd62f901	-0.05541325
115	0xbcfde0b1	-0.03099093
116	0xbd843908	-0.0645619
117	0xbd58286c	-0.052772924
118	0x3ca671c4	0.02031792
119	0xbdacef66	-0.08444099
120	0xbcf13051	-0.029441984
121	0x3d7fbe07	0.062437084
122	0x3d8bd600	0.06827927
123	0x3aacc3ab	0.0013180872
124	0x3dfba0bc	0.12286517
125	0xbe06e4c1	-0.131732
126	0xbe1cf444	-0.15327555
127	0xbd9048a7	-0.07045107
128	0x3db26640	0.08710909
129	0x3e10debb	0.14147465
130	0x3d83b711	0.064314015
131	0xbaa3a8f2	-0.0012486263
132	0x3d3a5d5c	0.04549919
133	0x3e433533	0.19063263
134	0xbb8e9e73	-0.0043523847
135	0x3d2d335b	0.042285305
136	0x3da441fa	0.080203965
137	0xbce316bf	-0.027720807
138	0xbe4bb5d8	-0.19893587
139	0x3d88d4df	0.06681227
140	0xbd5991be	-0.053117506
141	0x3de3c381	0.11121274
142	0xbddedde7	-0.10882168
143	0xbd27aa79	-0.04093406
144	0xbd1085a7	-0.03528371
145	0x3cf00bb8	0.029302463
146	0x3e12e510	0.14345193
147	0xbdd0e2e7	-0.10199528
148	0x3d441fc9	0.047881875
149	0xbd6c67e9	-0.057716284
150	0xbdd79a4b	-0.10527476
151	0xbc99a75b	-0.01875656
152	0xbd5b3746	-0.05351951
153	0x3e00b357	0.12568413
154	0xbaa44520	-0.0012532808
155	0x3e5a114c	0.2129566
156	0x3c473ec8	0.012160964
157	0x3ce45708	0.027873531
158	0xbc7f073a	-0.015565688
159	0xbd815e46	-0.06316809
160	0xbd313f7e	-0.04327344
161	0xbd8391d0	-0.06424296
162	0x3d34cf30	0.044142902
163	0x3d2c1f66	0.04202213
164	0x3e2ce4e2	0.16884187
165	0xbe387ac2	-0.18015578
166	0x3e181ab6	0.1485394
167	0xbde15ec8	-0.11004406
168	0x3e13dbe2	0.14439347
169	0xbe1a0216	-0.15039858
170	0x3d8d6745	0.06904463
171	0xbd9a5aa4	-0.075368196
172	0x3dae6927	0.0851615
173	0xbccdb740	-0.025111794
174	0xbd70aaff	-0.058756825
175	0xbca54f2c	-0.020179354
176	0xbc87a4d5	-0.01655809
177	0x3db54468	0.08850938
178	0xbbc3ea87	-0.0059788856
179	0x3cfe5bcf	0.031049637
180	0xbd91a170	-0.0711087
181	0xbd55b4f4	-0.052174523
182	0x3e526464	0.20546108
183	0xbd31c16d	-0.043397356
184	0x3d9874f9	0.07444186
185	0x3d8dc260	0.0692184
186	0x3dd7a205	0.1052895
187	0xbcfd64d9	-0.030931877
188	0xbe32c872	-0.17459276
189	0x3bd034fa	0.0063539715
190	0x3d0587ab	0.032600086
191	0x3c20835a	0.009796942
192	0x3b3d5d78	0.0028894823
193	0xbd3bc44e	-0.045841508
194	0xbd4e9ba3	-0.050441395
195	0x3c739d95	0.014869113
196	0x3d9e49a4	0.077288896
197	0x3c0626ec	0.008187991
198	0xbd562104	-0.05227758
199	0x3e10d9e4	0.14145619
200	0x3dfbd146	0.12295775
201	0xbdb61d1b	-0.0889227
202	0x3e13f2fb	0.14448158
203	0x3de7f6c4	0.11326364
204	0xbd121acc	-0.035670087
205	0x3e1e1c4b	0.1544048
206	0xbd18dc4e	-0.037319474
207	0x3d8202d3	0.06348195
208	0xbc8e9986	-0.01740719
209	0x38c5cab0	9.4314455e-05
210	0xbd9a456f	-0.07532775
211	0xbe3c0a5b	-0.18363325
212	0x3d004283	0.03131343
213	0xbd498259	-0.049196575
214	0x3d420027	0.047363427
215	0xbb0105cb	-0.001968729
216	0xbcbe5127	-0.023232056
217	0x3db9cdbe	0.09072445
218	0x3d0387d1	0.032111946
219	0xbc2f4c5c	-0.010699358
220	0x3c147fce	0.009063674
221	0x3de18ce1	0.11013199
222	0xbd9307ca	-0.0717922
223	0xbccead65	-0.025229165
224	0x3d408961	0.047006015
225	0x3ccaf1e7	0.024773551
226	0x3d1fa8ea	0.03897945
227	0x3e048409	0.12940992
228	0xbdb1592d	-0.08659587
229	0xbc8ce270	-0.017197818
230	0x3e2c9ae8	0.16855967
231	0xbe114558	-0.14186609
232	0x3d10825b	0.035280567
233	0x3db71fee	0.08941637
234	0xbd40c82c	-0.0470659
235	0xbd4a949d	-0.049458135
236	0xbe0152d5	-0.12629254
237	0xbe1673b1	-0.1469257
238	0x3d6962de	0.056979053
239	0xbd7f3bf9	-0.062313054
240	0x3bb27db5	0.0054471144
241	0x3d54afc3	0.051925432
242	0x3c1e143b	0.009648378
243	0x3db92273	0.09039774
244	0x3d9a7af8	0.07542986
245	0x3db8d181	0.09024335
246	0xbd975d13	-0.073907994
247	0xbdbe19c1	-0.09282256
248	0x3d65acb5	0.05607291
249	0x3d05e44f	0.032688435
250	0x3e571c21	0.21006824
251	0xbdd21528	-0.102579415
252	0x3c65a3df	0.014016121
253	0xbd81706b	-0.0632027
254	0xbcaddd5e	-0.02122372
255	0x3dade23c	0.084904164

rnn.weight_hh_l0 f4 [384, 128]
0	0x3d0e56ec	0.034750864
1	0xbe026923	-0.12735419
2	0x3dc36e84	0.095425636
3	0x3b978b2b	0.0046247444
4	0xbd8cfb2e	-0.06883846
5	0xbe138160	-0.14404821
6	0xbdf88d0d	-0.12136278
7	0xbcc30083	-0.023803955
8	0x3dcdec39	0.100548215
9	0x3beead57	0.0072838473
10	0xbe07a9e1	-0.13248397
11	0x3d2e5ec3	0.04257084
12	0xbdb42b2d	-0.087972976
13	0x3c2b669a	0.010461474
14	0x3ea58547	0.32328245
15	0x3d6a2e70	0.057173193
16	0xbd440521	-0.047856454
17	0xbe821151	-0.25403836
18	0xbe6bf0e5	-0.23041113
19	0xbe875116	-0.2642905
20	0x3d9355fe	0.07194136
21	0xbc906773	-0.017627453
22	0x3eb4e562	0.35331255
23	0x3e20b708	0.15694821
24	0x3dc73d1d	0.09728453
25	0xbe402b10	-0.18766427
26	0xbd4f95aa	-0.05067984
27	0xbdc8cc72	-0.0980462
28	0xbe095201	-0.13410188
29	0x3db7b04a	0.08969171
30	0x3de835fc	0.11338422
31	0x3e3126df	0.17299984
32	0xbdfdddfa	-0.12395854
33	0x3c51e826	0.012811696
34	0x3e35089d	0.17679067
35	0xbe093eed	-0.1340291
36	0x3e335b41	0.1751528
37	0x3db0d258	0.0863387
38	0xbcb91ac3	-0.022595769
39	0xbdcc978e	-0.09989844
40	0xbd98c876	-0.0746011
41	0x3e546741	0.20742513
42	0x3e85c71e	0.26128477
43	0x3e8dd17d	0.2769889
44	0x3dd9225d	0.106022574
45	0x3d98bbb2	0.07457675
46	0xbe648af2	-0.22318628
47	0x3d31bb42	0.043391474
48	0x3e513aef	0.20432638
49	0x3da48590	0.080332875
50	0x3d63f180	0.055650234
51	0xbddb7a05	-0.10716633
52	0xbdeb4e86	-0.114895865
53	0x3e988967	0.2979233
54	0x3e07c051	0.13256957
55	0xbd056873	-0.032570314
56	0x3ea7214c	0.3264259
57	0x3e818341	0.2529545
58	0x3d8afcaf	0.06786477
59	0x3ded9493	0.11600604
60	0x3d873a34	0.06602898
61	0xbd71f411	-0.05907065
62	0xbdf2b22b	-0.11850389
63	0xbeb246b2	-0.3481956
64	0x3e8ba4b7	0.27274105
65	0x3d602dad	0.05473106
66	0xbd3a6419	-0.045505617
67	0x3daa550b	0.08317002
68	0xbe6c1ff0	-0.23059058
69	0xbe31302a	-0.1730353
70	0x3da7df3c	0.081968755
71	0x3e5a8fa2	0.21343854
72	0xbd92afde	-0.0716245
73	0xbe23df50	-0.16003156
74	0xbe00037f	-0.12501334
75	0x3c4bf472	0.012448417
76	0x3eb413e4	0.35171425
77	0x3bd856ed	0.0066021592
78	0xbe11e5a0	-0.14247751
79	0x3d125bfd	0.035732258
80	0xbde1a3e7	-0.1101759
81	0xbdad75bd	-0.084697224
82	0x3d4e2050	0.050323784
83	0x3dd33566	0.10312919
84	0xbddfdc69	-0.10930712
85	0xbdbb0e21	-0.09133554
86	0xbdcf57c2	-0.1012416
87	0x3dfe253d	0.124094464
88	0xbe381e4a	-0.17980304
89	0x3d3a98bd	0.04555582
90	0xbe6be24f	-0.23035549
91	0x3de0a168	0.10968286
92	0x3cb1e835	0.02171717
93	0xbd5b1580	-0.0534873
94	0x3d9afc3b	0.075676404
95	0xbd85e772	-0.06538285
96	0xbe30ec23	-0.17277579
97	0xbe354dea	-0.17705503
98	0xbe0f4054	-0.13989383
99	0x3d560f8a	0.052260913
100	0xbe2cb587	-0.16866122
101	0xbeb6e120	-0.35718632
102	0x3e1f40a0	0.15551996
103	0x3d9512df	0.0727899
104	0x3d8f8479	0.07007689
105	0x3e1ce718	0.1532253
106	0xbd804a9a	-0.06264229
107	0xbc90a608	-0.017657295
108	0x3df53cd1	0.119744904
109	0xbd0370b8	-0.03208992
110	0xbc4d4721	-0.0125291655
111	0xbd85defb	-0.06536671
112	0x3e4de112	0.20105389
113	0xbe9b9e9f	-0.30394456
114	0x3cbaf0ba	0.022819865
115	0xbdb4554d	-0.08805332
116	0xbe321f50	-0.17394757
117	0xbe85e5c9	-0.26151875
118	0xbdea453f	-0.11438989
119	0x3d063436	0.032764636
120	0x3d9ca39a	0.07648392
121	0xbdc078da	-0.093980506
122	0xbcaba8b2	-0.020954464
123	0x3b2f759d	0.0026772984
124	0xbeb276ce	-0.34856266
125	0xbbb9f7a5	-0.0056752735
126	0x3d723106	0.059128784
127	0x3e175c5e	0.14781329
128	0xbb2a11dc	-0.0025950586
129	0xbe22b90e	-0.15890905
130	0x3e0fd4ca	0.14046016
131	0xbe139a7b	-0.14414398
132	0xbc9f6c6b	-0.019460877
133	0xbd3becd9	-0.045880172
134	0xbe1b588c	-0.15170497
135	0xbe1dc7f6	-0.1540831
136	0xbd522e1a	-0.051313497
137	0xbdeccf9a	-0.11563034
138	0xbe5cf0e8	-0.21576273
139	0x3db976bf	0.09055852
140	0x3d01373c	0.031546816
141	0xbe0183f0	-0.12647986
142	0x3e0e52b7	0.1389874
143	0x3d364e6c	0.044508383
144	0x3d9d3c31	0.07677496
145	0xbdbf9dfc	-0.09356305
146	0xbb3f5159	-0.0029192774
147	0xbe6d31eb	-0.23163573
148	0xbd633efe	-0.055479996
149	0xbc362ba0	-0.011118799
150	0x3e0920a9	0.13391365
151	0x3d9245de	0.07142232
152	0xbceadd25	-0.028669903
153	0xbd31ff82	-0.043456562
154	0x3cb02df8	0.021506295
155	0x3dbe9ce5	0.09307269
156	0xbd983bc5	-0.07433275
157	0x3dadf27d	0.084935166
158	0x3da728c8	0.08162075
159	0x3e295323	0.1653562
160	0xbac2889a	-0.0014841736
161	0x3e9779f4	0.2958523
162	0xbd4a5d6c	-0.0494055
163	0xbd269f46	-0.04067924
164	0x3e298cd4	0.16557628
165	0x3e2398b0	0.15976214
166	0xbdb34235	-0.08752862
167	0x3c328a92	0.010897296
168	0xbdce766b	-0.1008118
169	0x3e744dc3	0.23857789
170	0x3dea7883	0.11448767
171	0x3d569d31	0.052396003
172	0xbd80a001	-0.06280518
173	0x3e368084	0.17822462
174	0xbe010487	-0.12599383
175	0x3d8ddc73	0.06926813
176	0x3cabcd16	0.020971816
177	0x3d2fcc17	0.042919245
178	0x3d382bde	0.04496371
179	0xbbab5e3a	-0.0052297385
180	0x3d48f560	0.049062133
181	0x3ea11088	0.31457925
182	0x3e085305	0.1331292
183	0xbd99eb8e	-0.075156316
184	0x3e2e6556	0.17030844
185	0xbc6f9096	-0.014621874
186	0xbde8de70	-0.113705516
187	0x3d74724f	0.059679326
188	0xbe41be09	-0.18920149
189	0xbdc2795d	-0.094958045
190	0xbe1da718	-0.15395772
191	0xbe80e1a4	-0.2517215
192	0x3b15a0cd	0.002283144
193	0x3d83717a	0.06418128
194	0xbc8af512	-0.016962562
195	0xbd003be4	-0.031307116
196	0xbe9ce36c	-0.3064226
197	0xbd4bf5a4	-0.049794808
198	0x3dacd7a2	0.08439566
199	0x3dd6a073	0.10479822
200	0xbdca3460	-0.09873271
201	0xbe3e050f	-0.18556617
202	0xbd8ad304	-0.06778529
203	0xbcaa48fa	-0.020786751
204	0xb9b9280f	-0.00035315796
205	0xbdba4cdd	-0.09096692
206	0xbea07ba0	-0.31344318
207	0x3da4d2ca	0.08048017
208	0xbe634b09	-0.22196592
209	0xbc4fd718	-0.01268556
210	0x3dd1887e	0.10231112
211	0xbe0d98fb	-0.13827889
212	0xbcf45d44	-0.029829629
213	0xbcd70aa3	-0.02625019
214	0xbdfa3cce	-0.12218629
215	0xbdd3430a	-0.10315521
216	0xbe1677ae	-0.14694092
217	0xbe7c78e8	-0.24655497
218	0xbd50a73d	-0.05094074
219	0xbd9f864f	-0.07789289
220	0xbda94b07	-0.082662635
221	0x3d39e76e	0.045386724
222	0x3dd2eb83	0.102988265
223	0xbdc088db	-0.09401103
224	0x3ca33cf1	0.01992652
225	0xbe2f3e4b	-0.17113607
226	0xbc867298	-0.016412064
227	0xbdfd11cf	-0.12356912
228	0xbd09d2d8	-0.033648342
229	0xbec8be4f	-0.39207694
230	0x3e4fa676	0.20278344
231	0x3ed2b9f2	0.4115749
232	0xbd9db285	-0.077000655
233	0x3d8a6a79	0.06758589
234	0xbd430871	-0.047615472
235	0x3dadf87c	0.0849466
236	0x3e106f51	0.14104964
237	0x3d17391b	0.036919694
238	0x3ccc98d0	0.02497521
239	0xbd059838	-0.03261587
240	0x3e2ca3d9	0.16859378
241	0xbe22165b	-0.1582884
242	0x3e11059f	0.141623
243	0xbe7996b8	-0.24373901
244	0xbe8385ee	-0.25688118
245	0x3c793417	0.015210173
246	0x3e1a78f7	0.15085207
247	0x3dcaa216	0.09894197
248	0x3daf3f5e	0.08557008
249	0x3d35483f	0.044258352
250	0x3d7c8274	0.061647847
251	0x3daf4673	0.08558359
252	0xbe1989a0	-0.14993906
253	0x3dfbf7c4	0.12303117
254	0x3d97b8d6	0.074083015
255	0x3e07099c	0.1318726

rnn.bias_ih_l0 f4 [384]
0	0x3dd1057c	0.10206124
1	0x3dcf0811	0.101089604
2	0x3e041130	0.12897182
3	0xbcbcbb16	-0.023038428
4	0x3d1ca1c4	0.03824021
5	0x3da9b644	0.082867175
6	0x3cbd9623	0.02314288
7	0xbd17ea7d	-0.03708886
8	0x3d9fd73a	0.07804723
9	0x3e31e007	0.17370616
10	0x3d802820	0.06257653
11	0x3dedeace	0.11617051
12	0xbc963c88	-0.01833941
13	0x3e1f7cc7	0.15574943
14	0xbc136bd7	-0.008997879
15	0x3cb3e2ad	0.021958673
16	0xbdc436fd	-0.09580801
17	0x3d7b3330	0.061328113
18	0x3dd031f9	0.101657815
19	0x3d908d38	0.07058185
20	0x3e11c357	0.14234672
21	0xbcba4fd7	-0.022743149
22	0x3dc8a700	0.09797478
23	0x3e34c9e8	0.17655146
24	0x3d963550	0.07334387
25	0xbd90e2db	-0.07074519
26	0x3d8dfa71	0.069325335
27	0x3d406270	0.046968877
28	0xbb8fe924	-0.004391806
29	0x3bbc8141	0.005752713
30	0x3d32e34a	0.04367379
31	0x3e0ecb92	0.13944843
32	0xbd00f58a	-0.031484164
33	0x3e001c42	0.1251078
34	0x3dc492ef	0.09598338
35	0xbcf8e5a5	-0.03038294
36	0xbd46eeb7	-0.0485675
37	0x3d846a94	0.06465641
38	0x3d392fb1	0.045211498
39	0x3c0031d1	0.007824377
40	0xbdb43af3	-0.08800306
41	0xbd4feb3d	-0.05076145
42	0xbd954673	-0.07288828
43	0x3e3b4dca	0.18291393
44	0x3de1ebaf	0.11031281
45	0x3dea17c9	0.11430318
46	0x3c37a3b1	0.011208461
47	0xbd5402f9	-0.051760647
48	0x3d267a1c	0.040643796
49	0x3cc49355	0.023996035
50	0x3e3091bf	0.17243098
51	0x3e16a6a0	0.14712
52	0x3d558876	0.052132092
53	0xbd22cb25	-0.039744515
54	0x3e0d5f56	0.13805899
55	0x3e33ceb5	0.17559321
56	0x3dfee7ca	0.12446554
57	0x3c8e7daf	0.017393915
58	0x3e619e7b	0.22033112
59	0xbdec82dc	-0.11548397
60	0x3d427ab9	0.04748032
61	0x3d3cc4ff	0.046086308
62	0x3d9f3692	0.0777408
63	0x3dafbc76	0.08580868
64	0x3cc935ed	0.024561847
65	0x39486957	0.00019112728
66	0xbd7e9c93	-0.06216104
67	0x3db9df3b	0.09075781
68	0xbdef14f0	-0.116739154
69	0xbdb5c827	-0.08876067
70	0x3d14c45f	0.036320087
71	0x3dd509ab	0.10402235
72	0x3d884b86	0.0665503
73	0x3d4d0c0b	0.050060313
74	0xbc1bfcf9	-0.009520763
75	0x3dedbf76	0.11608784
76	0xbcfea42e	-0.031084146
77	0xbd58ae87	-0.052900817
78	0x3e04fb6f	0.1298654
79	0x3d39a75b	0.04532562
80	0xbe017805	-0.1264344
81	0x3ca5c87e	0.020237204
82	0xbbb5223c	-0.0055277627
83	0xbd3415d1	-0.04396612
84	0x3dc31daf	0.09527146
85	0x3dd0aaf1	0.101888545
86	0x3dee7f9c	0.11645433
87	0x3c7c382c	0.015394252
88	0x3cd27f57	0.025695486
89	0xbc94fa57	-0.018185778
90	0x3e0166cb	0.12636869
91	0x3e045f94	0.12927085
92	0x3c154eb7	0.009113005
93	0x3c9357b7	0.017986162
94	0x3de2d000	0.11074829
95	0x3e58dd54	0.2117818
96	0x3dc59ddf	0.09649252
97	0x3d029eed	0.031889845
98	0xbc94fd5c	-0.018187217
99	0x3e00a250	0.12561917
100	0x3c8eaaf7	0.017415507
101	0x3dcb93a5	0.0994027
102	0x3d6dc212	0.058046408
103	0x3e13062d	0.14357825
104	0x3d7c3415	0.061573107
105	0xbd1c63f2	-0.038181253
106	0x3d510e58	0.05103907
107	0x3e4d757e	0.20064351
108	0x3c07f82d	0.008298916
109	0xbd3da50e	-0.046299987
110	0x3d905cbb	0.07048937
111	0xbc6cbdcd	-0.014449549
112	0xbc79a828	-0.0152378455
113	0xbbc49edf	-0.006000384
114	0xb84af2dd	-4.8386737e-05
115	0x3d49933b	0.049212676
116	0x3ddaecea	0.10689719
117	0x3cd6ac08	0.026205078
118	0xbc587be7	-0.013213134
119	0x3dd9583e	0.10612534
120	0x3dd9cf6b	0.10635265
121	0x3e37de7f	0.1795597
122	0x3c1129ff	0.00886011
123	0xbd023468	-0.03178826
124	0x3e3f074c	0.18655127
125	0x3cae0045	0.021240363
126	0x3bb32ace	0.005467749
127	0x3db068d4	0.086137444
128	0xbe71c8d9	-0.23611774
129	0xbea0e7ee	-0.31426948
130	0xbe659ece	-0.2242386
131	0xbe6bd1d3	-0.2302926
132	0xbe3cf96f	-0.18454526
133	0xbe87818d	-0.26466027
134	0xbe3274e6	-0.17427406
135	0xbe01a1f3	-0.12659435
136	0xbda5d2cd	-0.08096848
137	0xbe56d5e4	-0.2098003
138	0xbe083e34	-0.13304979
139	0xbe9d7e15	-0.30760255
140	0xbec7d686	-0.39030856
141	0xbe45716a	-0.19281545
142	0xbe8b7671	-0.272388
143	0x3d956651	0.07294906
144	0xbe10f3f6	-0.14155564
145	0x3b98820e	0.0046541756
146	0xbe6d1840	-0.23153782
147	0xbe19fbb8	-0.1503743
148	0xbe6c5b30	-0.2308166
149	0xbdcf45e6	-0.10120754
150	0xbe38c029	-0.18042053
151	0xbe3ee0f5	-0.18640502
152	0xbdeedd35	-0.11663286
153	0xbeaf5d0b	-0.34250674
154	0xbea7987d	-0.32733527
155	0xbe9402d1	-0.289084
156	0xbe55ca68	-0.20877993
157	0xbe3f9376	-0.18708596
158	0xbdbdbf2f	-0.09264981
159	0xbeb3004d	-0.34961167
160	0xbda61c9e	-0.08110927
161	0xbe600fda	-0.21881047
162	0xbe64a186	-0.22327241
163	0xbe3cdf1d	-0.18444486
164	0xbe4d0889	-0.20022787
165	0xbe4a61c5	-0.19763859
166	0x3c521576	0.0128224995
167	0xbda21512	-0.07914175
168	0xbe8c294a	-0.2737525
169	0xbe30bf94	-0.17260581
170	0xbea19932	-0.3156219
171	0xbe810a8b	-0.25203356
172	0xbdd6cf3b	-0.10488745
173	0xbdc4110e	-0.095735654
174	0xbdf0cea8	-0.117581666
175	0xbe35b551	-0.17744948
176	0xbe543e13	-0.20726804
177	0xbe802759	-0.2503002
178	0xbe29639f	-0.16541909
179	0xbe388922	-0.18021062
180	0xbdd3b9e3	-0.103381895
181	0xbe23fb41	-0.16013815
182	0xbdf04d55	-0.117335
183	0xbe8f1aef	-0.27950236
184	0xbe53b334	-0.2067383
185	0xbe82bda3	-0.25535306
186	0xbe70a17e	-0.23499104
187	0xbe47b57b	-0.19502823
188	0xbe185ba3	-0.14878707
189	0xbe1919ea	-0.14951292
190	0xbe710894	-0.23538429
191	0xbb922652	-0.0044601345
192	0xbe48f6ab	-0.19625346
193	0xba500e98	-0.0007936745
194	0xbe1b3e1f	-0.15160416
195	0xbe0666a9	-0.13125099
196	0xbe810d83	-0.2520562
197	0xbe7845f4	-0.24245435
198	0xbe2085c6	-0.1567603
199	0xbe22dd30	-0.15904689
200	0xbe03e307	-0.12879573
201	0xbe89687f	-0.26837537
202	0xbe10cd91	-0.14140917
203	0xbb9a96c8	-0.0047176816
204	0xbda799c7	-0.081836276
205	0xbe5353cd	-0.20637436
206	0xbe0dca65	-0.13846739
207	0xbe669335	-0.22517093
208	0xbdb43026	-0.08798246
209	0xbe84a8f4	-0.2591015
210	0xbe4fda58	-0.20298135
211	0xbe17b982	-0.1481686
212	0xbe61758c	-0.22017497
213	0xbe84da51	-0.25947812
214	0xbe8a3405	-0.26992813
215	0xbe4762c8	-0.19471276
216	0xbe2aa126	-0.16663036
217	0xbe76f0d6	-0.24115309
218	0xbe763ef7	-0.24047457
219	0xbe24ba8f	-0.16086791
220	0x3b915354	0.0044349823
221	0xbe4dee0d	-0.2011034
222	0xbe31d0a0	-0.1736474
223	0xbe1e4c35	-0.15458758
224	0xbeb1fca9	-0.34763077
225	0xbe6d2643	-0.23159127
226	0xbe121bad	-0.1426837
227	0xbe2e2527	-0.1700636
228	0xbe3ea10d	-0.18616123
229	0xbe7ac642	-0.24489692
230	0xbe634d4f	-0.2219746
231	0xbe909dfd	-0.28245535
232	0xbe1f7a54	-0.15574008
233	0xbe2df8f1	-0.16989495
234	0xbe94569d	-0.2897233
235	0xbdae400a	-0.08508308
236	0x3c538eb5	0.012912442
237	0xbe268aa4	-0.16263825
238	0xbe356ede	-0.17718074
239	0xbc7cfdc0	-0.015441358
240	0xbe768858	-0.24075449
241	0xbd5cffde	-0.05395495
242	0xbe5d3659	-0.21602763
243	0xbe15699b	-0.14591067
244	0xbdbbddbf	-0.09173154
245	0xbe7f030b	-0.24903505
246	0xbde055ed	-0.10953889
247	0xbe829d76	-0.25510758
248	0xbd9d6534	-0.076853186
249	0xbe9fd4f3	-0.31217155
250	0xbe611a29	-0.21982636
251	0xbe1b7672	-0.15181902
252	0xbe28c9e6	-0.16483268
253	0xbd56ea48	-0.05246952
254	0x3caed458	0.021341488
255	0xbe0a040e	-0.13478109

rnn.bias_hh_l0 f4 [384]
0	0x3e37786f	0.17917036
1	0x3dd61a4f	0.10454237
2	0x3dcfd05d	0.10147164
3	0x3d9c32e9	0.07626898
4	0x3dbe97cd	0.093062975
5	0x3d2002e9	0.039065275
6	0x3d5e5bd6	0.0542868
7	0xbd86370e	-0.065534696
8	0xbd8b06d8	-0.06788415
9	0x3da60dd7	0.081081085
10	0xbd1b5c87	-0.037930038
11	0xbb22e22c	-0.0024854047
12	0x3d6aee47	0.057356145
13	0x3df22eb1	0.11825312
14	0xbce959ca	-0.028485198
15	0x3deb46d7	0.11488121
16	0xbdc67da0	-0.0969193
17	0xbd1e42ec	-0.03863804
18	0x3def2621	0.116771944
19	0x3dc278fe	0.09495734
20	0x3dcfb2b1	0.101415046
21	0x3d7ba9ce	0.061441235
22	0xbbeef956	-0.0072929068
23	0x3e43a615	0.19106324
24	0x3d9e654d	0.07734165
25	0xbd2e74c3	-0.04259182
26	0x3d9747a7	0.073867135
27	0x3ce3570b	0.027751466
28	0xbced9464	-0.029001422
29	0x3d4555ae	0.048177414
30	0x3ce7bb06	0.028287422
31	0x3cac1725	0.02100713
32	0xbcff7c88	-0.03118731
33	0x3da8f2fe	0.08249472
34	0x3e1a695c	0.15079254
35	0xbc99d333	-0.018777465
36	0x3d39b78f	0.04534107
37	0x3cf5db68	0.030011848
38	0xbcd2f2f4	-0.025750615
39	0x3cd1c6de	0.025607523
40	0x3d19d661	0.037557963
41	0x3d2889a9	0.041146908
42	0xbdb1c609	-0.0868035
43	0x3d99f9a2	0.07518317
44	0x3dcdf94b	0.100573145
45	0x3dcc0bc3	0.09963181
46	0xbcd61052	-0.026130829
47	0xbca48b21	-0.020085873
48	0x3cbd7514	0.023127116
49	0x3d3e5f37	0.046477523
50	0x3d3634f8	0.04448411
51	0x3d36dea4	0.04464592
52	0x3ca14041	0.019683959
53	0x3d8a4928	0.06752235
54	0x3cebe04d	0.028793478
55	0x3da70281	0.081547745
56	0x3e1e0be9	0.15434231
57	0xbb8534da	-0.0040651383
58	0x3d776b75	0.060405213
59	0xbd8162c0	-0.06317663
60	0x3e198b06	0.1499444
61	0xbd12a339	-0.035800193
62	0x3d49a962	0.0492338
63	0xbcc7c60f	-0.024386434
64	0x3d5e137e	0.054217808
65	0xbd079ebd	-0.03311037
66	0xbd8e1b6d	-0.06938825
67	0x3d83fed4	0.06445089
68	0xbda85ac5	-0.08220438
69	0xbceb5ba7	-0.028730227
70	0x3c1338c7	0.008985705
71	0x3ded1bee	0.11577593
72	0xbc1188d9	-0.008882725
73	0x3d2bd011	0.041946474
74	0xbd68cb7b	-0.05683468
75	0x3deddef3	0.1161479
76	0x3c7495d2	0.014928298
77	0x3d9f2faf	0.07772767
78	0x3e6fa965	0.23404463
79	0xbb6b4528	-0.0035899375
80	0x3d3fc063	0.046814334
81	0x3e0cc7f1	0.13748147
82	0x3db71e3d	0.08941314
83	0x3da72ea7	0.08163195
84	0x3e01b996	0.12668452
85	0xbcf2e953	-0.029652273
86	0x3dcdcfa0	0.10049367
87	0x3d93c179	0.07214636
88	0x3daa9475	0.08329097
89	0x3daab8bc	0.083360165
90	0x3ded3a6a	0.11583407
91	0x3d00c929	0.03144184
92	0xbd02580c	-0.03182225
93	0x3ca41b0f	0.020032434
94	0x3d9b3010	0.075775266
95	0x3e595385	0.21223266
96	0x3dcc367a	0.09971328
97	0x3e08cdbe	0.13359734
98	0x3d54bc2d	0.05193727
99	0x3d684053	0.05670197
100	0x3d0d451a	0.03448973
101	0x3dcc01dd	0.09961293
102	0x3dc513eb	0.0962294
103	0x3e2f0a6c	0.1709382
104	0xbcca47cc	-0.024692439
105	0x3d9a7be4	0.075431615
106	0x3d8fa931	0.070146926
107	0x3deab7c6	0.11460833
108	0xbd1c089b	-0.038094144
109	0x3b946550	0.004528679
110	0xbb549cf4	-0.0032442184
111	0xbdcb58af	-0.099290244
112	0xbd162cdc	-0.036663875
113	0xbcbd4752	-0.023105297
114	0x3dcfc8de	0.10145734
115	0x3df7a8fd	0.12092779
116	0x3dbcd9a6	0.09221201
117	0x3dd13fe4	0.10217264
118	0xbce63051	-0.028099211
119	0x3e4df6f1	0.20113732
120	0x3d955687	0.072918944
121	0x3e030bec	0.12797517
122	0x3e1d6b17	0.15372883
123	0x3d006cdd	0.03135382
124	0x3e42521b	0.18976633
125	0x3de29bab	0.110648476
126	0xbc0e8ad2	-0.0087000895
127	0x3d6d967f	0.058004852
128	0xbea2224a	-0.31666785
129	0xbe826d61	-0.25474074
130	0xbe0bd03a	-0.13653651
131	0xbe09099e	-0.13382575
132	0xbe7000d7	-0.2343782
133	0xbe10b333	-0.14130859
134	0xbe4f1140	-0.20221424
135	0xbdf71099	-0.120637126
136	0x3c599c93	0.013281959
137	0xbe15a409	-0.14613356
138	0xbcb38906	-0.021915924
139	0xbe77e64c	-0.24208945
140	0xbed963bc	-0.42458904
141	0xbe3a72ed	-0.18207903
142	0xbdced515	-0.10099236
143	0x3d102215	0.035188753
144	0xbe47e277	-0.19519983
145	0xbc467a1c	-0.012114074
146	0xbe935d1b	-0.2878197
147	0xbe3ef50e	-0.18648168
148	0xbe0dd2af	-0.138499
149	0xbe51bf7a	-0.20483199
150	0xbd968e27	-0.07351332
151	0xbdefc910	-0.117082715
152	0xbd95c04f	-0.073120706
153	0xbe3c7207	-0.18402873
154	0xbe4b0d77	-0.19829355
155	0xbe83713e	-0.25672334
156	0xbe47fc9e	-0.1952996
157	0xbe6e1fa3	-0.23254256
158	0xbdcfca6f	-0.10146033
159	0xbe8f4ccf	-0.27988288
160	0xbdd8a5c4	-0.10578492
161	0xbe277bd8	-0.16355836
162	0xbdc3e75b	-0.09565612
163	0xbe59f2eb	-0.21284072
164	0xbe85818a	-0.26075393
165	0xbe8647d3	-0.26226673
166	0xbc0bd3dd	-0.008534399
167	0xbe2c344a	-0.16816822
168	0xbe3e3842	-0.18576148
169	0xbe3fd505	-0.18733604
170	0xbea1f980	-0.31635666
171	0xbe4f5740	-0.20248127
172	0xbe5e8f1f	-0.21734284
173	0xbe7e9b83	-0.2486401
174	0xbe837857	-0.2567775
175	0xbe3bb54b	-0.18330877
176	0xbdc20f94	-0.094756275
177	0xbe29b597	-0.16573177
178	0xbe3f6f7b	-0.1869487
179	0xbe2af721	-0.16695835
180	0xbca392a5	-0.019967386
181	0xbe666872	-0.2250078
182	0xbdb4e415	-0.08832566
183	0xbe35e21e	-0.17762038
184	0xbe4dacf4	-0.20085508
185	0xbe03b870	-0.12863326
186	0xbe4f9fd0	-0.20275807
187	0xbcd25cd0	-0.025679022
188	0xbdef79d0	-0.11693156
189	0xbe145138	-0.14484107
190	0xbe5a7930	-0.21335292
191	0x3ca54904	0.020176418
192	0xbe282da1	-0.16423656
193	0xbd2585ea	-0.040410914
194	0xbdd69d37	-0.10479205
195	0xbe6b9b53	-0.2300847
196	0xbe1d4da2	-0.15361646
197	0xbe333ade	-0.17502925
198	0xbd497d6b	-0.049191874
199	0xbe80e0e5	-0.2517158
200	0xbe64e96d	-0.2235467
201	0xbe4e9668	-0.20174563
202	0xbe1d9925	-0.15390451
203	0xbdda7ab7	-0.10667937
204	0xbe5ef006	-0.21771249
205	0xbe147287	-0.14496814
206	0xbe64313b	-0.22284405
207	0xbe277d4b	-0.16356389
208	0xbd574c64	-0.052563086
209	0xbde1bd8a	-0.1102248
210	0xbe743a3e	-0.23850343
211	0xbdfb2037	-0.12262004
212	0xbe2775de	-0.16353557
213	0xbe7567a5	-0.23965319
214	0xbe483877	-0.1955279
215	0xbe7e5e91	-0.24840762
216	0xbe8dfe35	-0.27733007
217	0xbe8dc35e	-0.27688116
218	0xbe9b7957	-0.30366012
219	0xbdcaf39c	-0.09909746
220	0xbe295b32	-0.16538695
221	0xbe5e564d	-0.21712609
222	0xbe7fbd63	-0.24974589
223	0xbe1f5caa	-0.15562692
224	0xbe992331	-0.2990966
225	0xbe4af44f	-0.19819759
226	0xbe83792d	-0.25678387
227	0xbe802b0c	-0.25032842
228	0xbe344483	-0.1760426
229	0xbe861ce3	-0.26193914
230	0xbead05d2	-0.33793503
231	0xbe870d51	-0.26377347
232	0xbdf056ef	-0.11735331
233	0xbe53567b	-0.20638458
234	0xbe5a9417	-0.21345554
235	0xbe30eee5	-0.17278631
236	0xbdf304a6	-0.11866121
237	0xbe38dafa	-0.18052283
238	0xbe604fb8	-0.2190541
239	0x3c892894	0.016742982
240	0xbe6ec4a2	-0.23317197
241	0xbe0712ad	-0.13190718
242	0xbe88a63e	-0.26689333
243	0xbe6f5e06	-0.23375711
244	0xbdd1082d	-0.102066375
245	0xbe096363	-0.1341682
246	0xbe30bba1	-0.17259075
247	0xbe96ff8a	-0.29491836
248	0xbe529c24	-0.20567375
249	0xbe425101	-0.18976213
250	0xbe130efd	-0.14361186
251	0xbe32fc97	-0.17479168
252	0xbe3f822e	-0.18702003
253	0xbd31d8f0	-0.04341978
254	0xbda27f0d	-0.07934389
255	0xbe1c18cb	-0.15243833

fc.weight f4 [10, 128]
0	0xbd9275be	-0.07151364
1	0xbdd15cd1	-0.102227814
2	0xbe54b9dc	-0.20774025
3	0x3ed9e32b	0.42556128
4	0x3ee804cc	0.4531616
5	0xbf08490f	-0.5323648
6	0x3f107fbf	0.56444925
7	0x3edf834f	0.43654868
8	0xbf76546b	-0.9622256
9	0xbed2fe13	-0.41209468
10	0x3f8211b0	1.0161648
11	0x3f0aa577	0.5415873
12	0x3f22407c	0.63379645
13	0x3c5f26b2	0.0136200655
14	0x3f066f9d	0.5251406
15	0xbf54eaba	-0.83170664
16	0xbe9a0957	-0.3008525
17	0xbf806b87	-1.0032815
18	0xbe8eff3a	-0.27929097
19	0x3e5613c5	0.20905979
20	0xbcb12805	-0.021625528
21	0x3d978925	0.07399205
22	0x3eb7003b	0.35742363
23	0xbf4e4a23	-0.80581874
24	0xbe84d348	-0.25942445
25	0x3f3bb0e5	0.73316795
26	0xbf86d069	-1.0532352
27	0x3f61708d	0.88062364
28	0xbd9fc4cd	-0.07801209
29	0x3fa57eb3	1.292929
30	0x3e921bf7	0.2853696
31	0xbe415a4c	-0.18882102
32	0xbee07820	-0.43841648
33	0xbe5cd5c5	-0.21565922
34	0xbd3f649b	-0.046726804
35	0xbf00800d	-0.5019539
36	0x3ea88c8d	0.32919732
37	0xbf577b06	-0.84172094
38	0x3f466e6a	0.7751223
39	0x3e8867db	0.26641735
40	0xbe65bdab	-0.22435634
41	0x3e192982	0.1495724
42	0xbc0f0087	-0.008728153
43	0xbe20f757	-0.15719353
44	0x3e8ad98b	0.27119097
45	0xbeb19aab	-0.34688315
46	0x3f5e4dd4	0.86837506
47	0xbee11b48	-0.43966126
48	0x3e95989a	0.29217988
49	0xbf0bd00b	-0.54614323
50	0x3f4cc084	0.79981256
51	0xbdd23064	-0.10263136
52	0xbee01952	-0.43769318
53	0xbe520f3a	-0.20513621
54	0x3dc39e7c	0.09551713
55	0x3e364ecf	0.178035
56	0xbf923524	-1.1422467
57	0x3f867682	1.0504916
58	0xbe474f0f	-0.19463752
59	0xbf227408	-0.634583
60	0xbe2c2d21	-0.1681409
61	0xbf4fdb52	-0.8119403
62	0x3f4adbd3	0.79241675
63	0x3f8fda55	1.1238505
64	0x3ed71a9b	0.42012486
65	0x3f381f13	0.71922415
66	0x3f1a8948	0.60365725
67	0xbee8b5ec	-0.45451295
68	0xbf1656b2	-0.58726037
69	0x3e3c908d	0.18414517
70	0x3e123562	0.14278176
71	0x3f5146dc	0.8174875
72	0xbf3c6614	-0.7359326
73	0xbdc0bdeb	-0.09411224
74	0x3f568e5d	0.8381098
75	0xbf6c1fc0	-0.92235947
76	0x3d103e6f	0.03521579
77	0x3f583b33	0.8446533
78	0xbf1dd8db	-0.6165902
79	0xbe6fd99a	-0.23422852
80	0x3ed88d32	0.42295223
81	0xbee4701a	-0.44616777
82	0xbee5cd54	-0.44883215
83	0xbf1ce591	-0.6128779
84	0xbf415f40	-0.75535965
85	0x3f0b7730	0.5447874
86	0x3f6b92a1	0.9202061
87	0xbf00bb4d	-0.502858
88	0xbdfc2708	-0.12312132
89	0xbf8bc4bb	-1.0919412
90	0xbedb893e	-0.42878145
91	0x3e21047c	0.15724367
92	0xbf929e9a	-1.1454651
93	0xbeae3143	-0.3402196
94	0xbe4628ac	-0.19351453
95	0x3d989106	0.07449536
96	0x3e4cf220	0.20014238
97	0xbd947b60	-0.072500944
98	0x3ef2e2f1	0.47438768
99	0x3dc81ac6	0.09770732
100	0xbe387932	-0.18014982
101	0xb89517d7	-7.109314e-05
102	0xbe3fc732	-0.1872833
103	0xbe1d7b72	-0.15379122
104	0xbeef479b	-0.46734318
105	0x3f6fcc75	0.9367135
106	0x3d2aeb47	0.041728284
107	0x3ea5366c	0.32268083
108	0xbf9feefd	-1.2494808
109	0x3f261f10	0.6489115
110	0xbf4d716d	-0.802512
111	0xbf478cbe	-0.7794913
112	0x3f0bbe23	0.54587
113	0x3f922b23	1.1419414
114	0xbf06fced	-0.52729684
115	0xbf335d5d	-0.70064336
116	0xbf8e97c4	-1.1140065
117	0x3e18aa8e	0.14908811
118	0xbf081788	-0.53160906
119	0x3de8a031	0.11358679
120	0xbdb7f5d1	-0.08982433
121	0x3ce302c6	0.027711283
122	0x3dd146d0	0.102185845
123	0x3f52eb5a	0.8239037
124	0x3e5a66a5	0.21328218
125	0xbf0735df	-0.52816576
126	0xbeda9471	-0.42691377
127	0xbe99075b	-0.29888424
128	0xbf1e3e0a	-0.61813414
129	0x3eff7e20	0.49900913
130	0x394f674c	0.0001977954
131	0x3f9ae02f	1.2099665
132	0xbde15b13	-0.11003699
133	0x3f6c0952	0.9220172
134	0x3f79a741	0.97520834
135	0xbec5747a	-0.38565427
136	0xbddbbb3f	-0.10729074
137	0x3e6a034f	0.22852825
138	0x3f25809b	0.6464936
139	0xbea1245f	-0.3147306
140	0xbf4e8e10	-0.8068552
141	0x3e10eaf4	0.14152128
142	0xbf7fbe3b	-0.99899644
143	0x3f4305f6	0.7618097
144	0x3f57ba1e	0.8426837
145	0x3e26b73e	0.16280839
146	0x3f57fa46	0.8436626
147	0x3e09f390	0.13471818
148	0x3daa1319	0.08304424
149	0xbf255658	-0.64584875
150	0xbafa1654	-0.0019080141
151	0xbf148b3f	-0.5802497
152	0x3ecbc854	0.39801276
153	0xbef80440	-0.48440742
154	0xbe00c6e0	-0.12575865
155	0x3f17c993	0.5929195
156	0x3f293929	0.66102844
157	0x3f263dc5	0.64938
158	0x3f57edad	0.8434704
159	0x3f01d7d1	0.50719935
160	0xbecec984	-0.4038812
161	0xbf070c8a	-0.5275351
162	0xbd9df968	-0.07713586
163	0xbf0d5903	-0.55213946
164	0x3f126f37	0.5720095
165	0x3d89d015	0.067291416
166	0xbf38ae38	-0.72140837
167	0x3ef23dbc	0.47312725
168	0x3f6bc526	0.920977
169	0x3d8d92c1	0.06912757
170	0xbf66d16b	-0.90163296
171	0xbe2671e7	-0.16254388
172	0xbe9f3c96	-0.3110091
173	0x3f1f3472	0.621894
174	0x3d42bea5	0.047545094
175	0xbf825946	-1.0183494
176	0xbed393e8	-0.4132378
177	0xbeefde62	-0.46849352
178	0xbec4dfee	-0.38452095
179	0xbdbba240	-0.09161806
180	0xbec34819	-0.38140944
181	0xbe9c1070	-0.3048129
182	0x3ecb0684	0.3965341
183	0x3e654971	0.22391297
184	0x3da80b26	0.082052514
185	0xbfa2c8df	-1.2717551
186	0x3d9fa210	0.07794583
187	0x3f262f00	0.64915466
188	0xbed73586	-0.42033023
189	0x3f542431	0.82867724
190	0x3f42953a	0.7600895
191	0xbf6acfd3	-0.91723365
192	0xbe2dd5ec	-0.16976136
193	0xbf1cd858	-0.61267614
194	0x3f12007c	0.5703199
195	0x3ef0d5ee	0.47038215
196	0x3ee059bb	0.4381846
197	0xbe86bc2f	-0.26315448
198	0x3f362726	0.71153486
199	0xbf5f7cff	-0.87300104
200	0x3f459c6e	0.7719182
201	0xbeae80a8	-0.34082532
202	0xbf33952e	-0.70149505
203	0x3fa13b0b	1.2596143
204	0xbe2b01e5	-0.16699941
205	0x3f219bbb	0.6312825
206	0xbf912840	-1.1340408
207	0x3f3a0436	0.72662675
208	0xbf8ea715	-1.1144739
209	0x3efdf41c	0.49600303
210	0x3f334234	0.7002289
211	0x3f3191e8	0.6936326
212	0xbec36fb2	-0.38171154
213	0xbe94ac8c	-0.29037893
214	0x39abe60b	0.00032787057
215	0xbe95efd1	-0.29284528
216	0x3eca9f8a	0.39574844
217	0xbf412d83	-0.7546007
218	0xbec00edf	-0.37511346
219	0xbe3dd8fb	-0.18539803
220	0xbf9e0416	-1.2344997
221	0x3ecde33e	0.40212435
222	0xbe9b272b	-0.3030332
223	0x3d466bf3	0.048442792
224	0x3f2bd3c7	0.6712002
225	0x3e2df2ba	0.16987124
226	0xbd60e166	-0.054902457
227	0x3e0cf131	0.13763882
228	0x3f5b94bb	0.8577382
229	0xbd8d2c64	-0.068932325
230	0x3f6ca6fa	0.92442286
231	0xbbcc6298	-0.006237339
232	0x3ca5bd73	0.020231938
233	0xbf06af80	-0.5261154
234	0x3b95c641	0.004570753
235	0x3f2b197c	0.6683576
236	0xbf46975a	-0.77574694
237	0x3f14eaec	0.5817096
238	0x3ee5319a	0.44764405
239	0x3eb0253a	0.34403402
240	0xbeeb7804	-0.45990002
241	0xbf5dc213	-0.8662426
242	0xbe2ebc69	-0.1706406
243	0x3eea318e	0.45740932
244	0x3e9fc355	0.31203714
245	0xbd6a0623	-0.05713476
246	0x3e9cee21	0.30650428
247	0x3cbd7651	0.023127707
248	0xbf2e6928	-0.68129206
249	0x3f22b73e	0.63560855
250	0x3f85ed78	1.0463095
251	0x3f249056	0.6428274
252	0xbc2e74e9	-0.010647991
253	0x3f2c8bbd	0.67400724
254	0x3f9c686b	1.2219366
255	0xbefc9678	-0.4933355

fc.bias f4 [10]
0	0x3e5a1103	0.21295552
1	0xbd31f37f	-0.043445107
2	0xbd94c7f3	-0.072647
3	0x3b916da5	0.0044381195
4	0xbd6c8001	-0.05773926
5	0x3cf69e45	0.030104766
6	0x3d6e9469	0.058247004
7	0xbdd0d85a	-0.10197516
8	0xbe3c15e3	-0.18367724
9	0xbd78bd19	-0.060727213
